checkpoint_critic.pth (torch_old, 89491 bytes, 9 tensors)

fcs1.weight f4 [128, 33]
00000000: 49e4 b2bd 00a0 053f fd4c ad3e 6b8a 97c0
00000010: 5de8 2e40 9778 1640 dac7 02bf 6b37 26be
00000020: 3440 ce3c a3b4 873f 1eee 273e 925b a6bd
00000030: e5d5 343e 7bf1 d13d 7b0e 00be 9c28 53be
00000040: cebe 0ec0 1904 873f 0a85 58bf 0db9 94bf
00000050: e3d2 6839 7c2e c53c 0e7a 3a3e 1397 df3c
00000060: 342c a33d 353e 8abe 34f9 6e3e d083 3abf
00000070: 3e2c 913e a294 0d3d d0a3 323f a4a0 27bd
00000080: 15de ddbe 5069 3c3f 15ca 1b3f 2127 5abf
00000090: 86e0 1240 5e69 f6bf 1ec1 a13e 4f93 e73f
000000a0: ac07 17be a9f2 a2bb 9b35 283f 61a5 7cbe
000000b0: f258 223e 1a8c e6bc 2d94 62be c149 5dbe
000000c0: 0e91 dc3e 9d6c 3cc0 73a6 0440 8436 6fc0
000000d0: 8e2c 4940 5b8d 16be ff4f 91bd 50f2 13be
000000e0: ba1e 743e aefb 953c e95e 043e a03b 34be
000000f0: 7bb1 023f defd 3dbe df41 b1bd 7695 e8be
00000100: b8f2 adbd cef0 f8bf 0225 293e 3b74 f73e
00000110: 8ca7 343f 6667 f1bf 87d7 b6bf 1534 9440
00000120: 7486 9abe 4d14 c63e 0f18 87bf d073 47bf
00000130: a446 cdbe 8b17 2f3b e1bf 163e 3522 47be
00000140: 60c8 c9bd 106d 1ebe a409 4b3f 23e4 3740
00000150: 8f20 1140 bdb1 b83f 6232 993b 352e 873e
00000160: bce2 b7bc 8185 6dbc 9500 a03e efd6 aabe
00000170: cc0b 763f fe94 093f cd8c 283f 48ea 423c
00000180: 9509 25bf 70c2 023c f4fe a0bf dd6b 873e
00000190: aea8 6f3e 92da 26bf 8516 4bc0 b817 b3bf
000001a0: dbad 3040 ff73 a2be 0db6 35be 51fa 7bbe
000001b0: ad9a d9be 56ed ac3e 40a6 013d 72f2 d73c
000001c0: 3c26 413e c9bb ebbe 574f 923e 9147 243e
000001d0: a322 d03f 37bc 5bbf 5cd6 6ebf b629 833d
000001e0: d5de 123e 4ce7 eb3d 9f14 093f a2d5 2ebe
000001f0: 37bb fd3d 7399 67bf 969c 69bd 1dd3 233d
00000200: d010 8e3b 369f d93d e74d a83d b30b 86c0
00000210: 9c49 6abe 8da8 e5be 1cb8 293f 2d7f 293e
00000220: f01f 9d3f bd1a 4140 8f58 b83f 7385 0e3f
00000230: 74dc 893c d1f9 1dbe 002b dfbd 7aa7 3d3e
00000240: 2658 483e 4826 d4bd 4a36 8abd a6de 17bf
00000250: 155b bbbf ad3c 0f40 4c41 22c0 d46a 90bf
00000260: a95a 52bd 9ef1 113c 77d5 d63d 7f50 e63d
00000270: 0aa7 3dbe 9182 133d d5dc 603f 4565 d83f
00000280: 917f 393f 0bb2 4dbd 0cd9 ebbf 23e5 b23d
00000290: 92e4 25c0 0ce0 763e abd8 abbe 8b84 c63d
000002a0: 2f49 67c0 00ba b4bf 846b 88be 2ca4 10bf
000002b0: ada2 4e3d 4cbc 903c 2c59 87bd a353 fa3d
000002c0: 7f7f ecbc 169d 8cbc 0fdb 76bd 0c97 af3d
000002d0: 36bb a1bd be7d 85be 4fe3 ed3c 5a75 da3e
000002e0: 221d 29bd 3dbd dbbb 0555 aeba a381 293d
000002f0: ac47 193c f8df 4bbd e0bc ae3c 5a5e 6ebe
00000300: 3bfa d63e 7ab6 e53d c295 163d ac29 83be
00000310: 4ea1 e0bc 0d8d ecc0 c2ae d0bb 436b 4bbd
00000320: bcd1 803d 9689 6a3c 9171 16bf 946b d73e
00000330: 0773 cdbe e525 873d 727d 8bbd bac7 ae3c
00000340: 13b7 ee3b 0414 0ebd deb0 be3c 3189 993a
00000350: 6092 a13c 78d8 24bd 001d 593e 7ca2 023e
00000360: cedf 8dbe c419 0a3f ef32 0b3c 3d10 f23a
00000370: eda6 78bc cd36 6e3c 4f5b a6bb ad4e 82bb
00000380: cb51 04be 33a5 053f f9fc 3bbe 806a 32bd
00000390: d51d 1bbf 280e 30bd a53e 3141 da25 c7bd
000003a0: 9d7f a9be 44ad 7abd f940 97be eab0 d1be
000003b0: d8bf dc40 8a89 2240 ff4b 11bf 6cb8 74bf
000003c0: a8d7 453e 5a59 a0bd 6172 f1bc 1b41 33be
000003d0: e7b8 3e3a 281b 493d 95ea 32be 979b b93e
000003e0: 3a0b 3140 dc0e 4a40 366d 4740 f8d7 4bbd
000003f0: d6b1 4e3c cc95 2abd 0086 2cbe c48e a23c
-0.08734948 0.52197266 0.338478 -4.7356467 2.7329323 2.3511102 -0.510862 -0.16232078
0.025177099 1.0602001 0.16399428 -0.081229344 0.1765972 0.10251137 -0.12505524 -0.2062096
-2.2303958 1.0548126 -0.84578 -1.1618973 0.00022203806 0.024070017 0.18210623 0.027293717
0.079674155 -0.27000585 0.23337251 -0.7285738 0.28354067 0.034565575 0.6978121 -0.040924683
-0.43333498 0.73598194 0.6085523 -0.85215956 2.2949538 -1.9250906 0.3159265 1.809183
-0.1474902 -0.004972775 0.65706795 -0.24672462 0.15854242 -0.028142978 -0.22126837 -0.21610166
0.43079418 -2.9441292 2.0726593 -3.7377024 3.1433444 -0.1470236 -0.07095336 -0.14447904
0.23839846 0.018308487 0.1292683 -0.1760087 0.51052064 -0.18553874 -0.08655142 -0.4542653
-0.084935606 -1.9448488 0.16518024 0.48330864 0.70568156 -1.885968 -1.4284524 4.6313577
-0.30180705 0.38687363 -1.0554217 -0.7791109 -0.40092957 0.0026716914 0.14721633 -0.19446643
-0.098526716 -0.15471292 0.79311585 2.8732994 2.2676122 1.4429241 0.0046751956 0.2640244
-0.022446983 -0.014497162 0.31250444 -0.33367106 0.9611175 0.5374297 0.65839845 0.011896677
-0.64467746 0.007980928 -1.2577806 0.2644948 0.2340419 -0.6517726 -3.1732495 -1.3991613
2.7606113 -0.31729123 -0.17745228 -0.24607207 -0.4250082 0.33774823 0.03165269 0.026360724
0.18862242 -0.46041706 0.28576156 0.16042925 1.626057 -0.8583407 -0.93295836 0.0640444
0.14342816 0.11518726 0.5354709 -0.17073682 0.12389224 -0.9046852 -0.057034098 0.039996255
0.0043355003 0.1062607 0.08217984 -4.188928 -0.22879642 -0.44855157 0.66296554 0.1655242
1.2275372 3.017257 1.4402026 0.5567238 0.016828753 -0.15427329 -0.108968735 0.18520918
0.19564876 -0.10358864 -0.06748636 -0.5932411 -1.4637171 2.2380784 -2.5352354 -1.1282601
-0.05135599 0.008907704 0.10489934 0.11245822 -0.18520752 0.03601319 0.8783696 1.6905905
0.72460276 -0.050218623 -1.8425612 0.087351106 -2.5920758 0.24108905 -0.33563742 0.09693249
-3.6138418 -1.4119263 -0.26644528 -0.56500506 0.05044811 0.017667912 -0.06608805 0.12222984
-0.028869389 -0.017164748 -0.060267504 0.08573732 -0.07897036 -0.26072496 0.029039053 0.42667657
-0.04128755 -0.0067059086 -0.0013300484 0.041383397 0.009355467 -0.04977414 0.021330297 -0.2327818
0.41987786 0.11216445 0.036763914 -0.2561773 -0.027420666 -7.392218 -0.006368489 -0.04966284
0.06290004 0.01431503 -0.5876704 0.42074263 -0.4012682 0.06599025 -0.06811036 0.021335471
0.0072850077 -0.034687057 0.023277696 0.001171386 0.019723117 -0.040245503 0.21202469 0.12757295
-0.27709812 0.53945565 0.00849603 0.0018467974 -0.015176517 0.014539433 -0.005076803 -0.003976664
-0.12921827 0.522052 -0.1835822 -0.043558598 -0.60592395 -0.04298225 11.077794 -0.097240165
-0.33105174 -0.061200395 -0.29541758 -0.40955287 6.8984184 2.5396447 -0.56756586 -0.95593905
0.19320548 -0.078295425 -0.029473485 -0.17505305 0.00072754774 0.049098164 -0.17472298 0.36251518
2.7663102 3.157157 3.1160407 -0.04976651 0.012615642 -0.041646764 -0.16847992 0.019843467

fcs1.bias f4 [128]
00000000: bd52 1a3f 4c6c 07bf e312 3dbf 185c 0a3e
00000010: 41fe f7bf 746e f3be 7864 f5be 6080 02be
00000020: eaaf 1ebf 6125 00bf 709d 39bf 9c82 c7be
00000030: cd4e a1be 706b 693e c28f 7abf 0896 4bbf
00000040: a028 5cbf 781b 863e 03ec 28bf b512 a1bc
00000050: 798a f9be f318 a43d b6f0 b7bf 59bb 02bf
00000060: 8ce9 4bbf 915c 6fbf 5fd6 58bf d67c 7ebf
00000070: bc02 9abf bdd0 21bf dc82 1b3f 9a43 cebf
00000080: ea99 2f3f e405 bc3e ecb9 80bf c7a8 713f
00000090: 196e 6ebf c788 78bf 6390 08be 0961 0bbf
000000a0: d37f c4bf 7414 133f 8377 acbe 253c afbf
000000b0: b95e ec3e 48f5 d5be eb31 eabe d28c a23e
000000c0: 757c 3cbf 38ce 54be 62af 70bf e518 2a3d
000000d0: 2c11 82be bb86 bdbd c9f7 90bf 2dbe e8bd
000000e0: b6f6 9dbe 5255 babe 3cf0 8b3e 87d8 75bf
000000f0: c078 e3be 0a8b e9bf 9880 16bf 5377 463f
00000100: f247 e4bd 717f 85bf c93f 5dbf da3a 3ebe
00000110: 6732 18be bc1c 563d 4346 40bf 7f52 84bf
00000120: 526e 9cbe f5a2 fabe 86f2 cb3e 1a51 90be
00000130: 1579 0cbf 3770 b0bd 96ac 173f 15d5 a4be
00000140: b13d f73f c7dd e83d cbe4 ffbf 5d53 f8bc
00000150: 5cdb 56bf a649 f23e 68c4 40bf 53dd 3f3c
00000160: 00ce a0be 8962 9dbe 4bf1 20bf 004f 71be
00000170: 4e31 86bf c2e6 83bf 6498 02bf 0511 3abf
00000180: 1445 02bf 17aa e0bf cae6 f1be 51cd 4dbf
00000190: 13c6 2dbf 280d 2dbf f57b d53f 1291 a93d
000001a0: 1358 9dbf 0c43 6fbf 7c41 98be cf08 be3d
000001b0: 1896 57bf 5aeb 7a3e bd62 42be ba87 77bd
000001c0: 0ff2 bfbe 9a83 c6be 1710 703c 3485 9abe
000001d0: d288 8ebe 9fb3 36bf 777a 2ac0 eaf9 0dbf
000001e0: 8f5d 3c3f 8c94 7bbf 9383 063f fe8c cbbf
000001f0: 1dfa 83bf c71b d3be ffef 10bf c44b 41bf
0.602825 -0.5289962 -0.73856944 0.13511693 -1.9374467 -0.47545207 -0.47928214 -0.12744284
-0.61987174 -0.50057036 -0.72505856 -0.38966835 -0.31505433 0.2279489 -0.97875607 -0.79525805
-0.8599949 0.26192832 -0.65985125 -0.01966224 -0.4873846 0.08012571 -1.4370334 -0.5106712
-0.7965324 -0.9350062 -0.84702104 -0.99409235 -1.2032084 -0.63209134 0.6074655 -1.611438
0.6859423 0.36723244 -1.0056739 0.9439816 -0.93136746 -0.97083706 -0.13336329 -0.5444494
-1.5351509 0.57453084 -0.3368493 -1.369023 0.46166018 -0.41788697 -0.4574121 0.31748062
-0.73627406 -0.20781791 -0.9401761 0.041527648 -0.25403726 -0.092542134 -1.1325618 -0.11364398
-0.30852288 -0.3639322 0.27331722 -0.9603352 -0.44428062 -1.8245556 -0.5878997 0.77525824
-0.11146535 -1.0429517 -0.86425453 -0.18577138 -0.14862977 0.052273497 -0.7510721 -1.0337676
-0.30552918 -0.4895245 0.39833468 -0.28186876 -0.54872257 -0.08615153 0.5924772 -0.3219382
1.9315702 0.11370426 -1.9991697 -0.030313188 -0.83928466 0.47321814 -0.7529969 0.011710483
-0.31407166 -0.3073924 -0.62868184 -0.23565292 -1.0483797 -1.0304797 -0.5101378 -0.7268222
-0.50886655 -1.7551907 -0.4724639 -0.8039141 -0.6788036 -0.675982 1.6678454 0.08279623
-1.2292503 -0.9346168 -0.2973746 0.09279024 -0.842134 0.24503842 -0.18982978 -0.060432173
-0.37489364 -0.3877228 0.014652274 -0.3017975 -0.2783876 -0.7136783 -2.6637247 -0.55459464
0.7358026 -0.9827354 0.52544516 -1.5902402 -1.0310704 -0.4123213 -0.56616205 -0.75506234

fc2.weight f4 [128, 132]
00000000: 6b7b 2bbf 0697 033f a1d5 e4bf 210a 40bf
00000010: f5bc a4bf ccad 31bf 40a4 dbbe 05fc 82bf
00000020: a63b fcbe 602a 6c3e fa0d 823e a865 10bf
00000030: d0b1 7cbf 69ea 893d 2bba c53e e3bf a63e
00000040: bf4c 9bbe fb59 2f3f 4487 77bf 83bc f1be
00000050: bdeb 18bf f1a4 16bf 2844 273e cc3d 02bf
00000060: 9b95 13bf f323 043f 2688 63bf d54b b6bf
00000070: c77b 2c3e c66e d9be 13a4 35bf 8223 b73e
00000080: 56fa eb3e f60a 7abf ad39 d1bd c548 bc3e
00000090: 7e06 6f3e c04d d0be 358e 4ebe 23f7 16bf
000000a0: d8a5 c53e 9e98 e7be ae14 c2be 924f 20bf
000000b0: 8c90 03bf 6291 cdbe 8b0e ddbe 5f26 2a3e
000000c0: 4b68 76bd f2dc d1bc 35c4 1fbf 4081 a33e
000000d0: 4f5b ce3e cc05 793e c5fa 043f b27b d63e
000000e0: 76c4 02bf 8b8b 0fbf 8599 afbf 2093 3c3d
000000f0: 6648 903d f698 e53e f7ef 303e 8eb6 85be
00000100: 36f1 01bf 4b70 92bf c0fc 1fbf d22f a2bf
00000110: fee0 42bf f3ae adbf bc6d a0be 80ef 263e
00000120: a520 493f 8d52 c03e 3a01 72bf ab05 f9bb
00000130: d56f 3cbe f066 5dbd 1e50 abbf 8c9f 70bf
00000140: 3f07 afbf ad91 05be b8f2 8bbe 4016 14bf
00000150: 9b8b 073f ae8c 57bf f7e3 64be 4809 d4be
00000160: 1711 133f fbdc 48bf 4adb 27bf b9ed b0be
00000170: 77b8 cd3e 5217 d8bf 83ba 5dbf 33a9 bebf
00000180: f363 b33f 1ba3 20bf 9366 c93d d2e3 35bf
00000190: 714a 2cbf 54c8 36bf d544 b8ba 19bf d53f
000001a0: 8c42 b6be c585 423d 25d8 8abf a817 02bd
000001b0: 268c 97bf 7e4a ebbe 0bdf b53e 8948 ecbe
000001c0: 1c24 58bf a767 1b3f f965 76bf f67f 223e
000001d0: 4978 91bf 7ee7 c5bf 41a2 6abf 3a9e a9be
000001e0: 25ae a1be e069 bdbe e9a4 6bbe 5c19 c33f
000001f0: 39cc a8bf 8d08 5ebf 0be5 f4bf 1732 5f3f
00000200: 6c81 76bc e837 0d3d 407b bdbd 788f 49bd
00000210: b537 7a3e 1853 643e e468 32bd 31a2 1c3f
00000220: 1204 bdbe 6da5 0dbe 674a 923d 107e 043e
00000230: 33c3 13bf 87ee fc3e 40ed d4bd 4783 ddbf
00000240: f4c6 b0be 9cdd 5a3e 518a 83be 7160 da3e
00000250: 3d77 ad3d 8132 b03e 1400 9f3e 4524 683c
00000260: c109 6cbf c595 083f 6dc7 133e 0545 1d3e
00000270: 1223 c03d 64a1 693e 68ac d2be de11 e2bd
00000280: 8165 0e3f 3b66 b2bd 555f 1b3f c2ae f1be
00000290: 2dda 2a3f f5d6 99be 8668 d0bd 5d56 b43e
000002a0: 6a3d 11bf c223 56bf e792 1abf 86a8 e23e
000002b0: 6d72 dcbd 4948 3f3d ee9b 10bf c42e c83c
000002c0: e709 e33e 662a 21bf 77ca cd3e 9bf2 9e3e
000002d0: e14a 3a3f 9458 8ebf cbb1 00bf 8564 0ac0
000002e0: e0d0 86be 1b12 2cbe b183 6bbd dba0 0e3f
000002f0: 41d0 a13e 7afa ce3c 3bc1 3d3e a909 4b3e
00000300: 43b4 03bf 4a50 ffbe 1669 393e dd3b 60be
00000310: b12d c63e 00b5 f7be 7eca 8a3e 57d9 b4bb
00000320: 4243 3abe eb89 c53d 5124 823e ae38 0d3e
00000330: ebba a13e 64f7 eabe 3186 42bf cad3 39bf
00000340: 2dcc ec3e 2000 203f 334a c5be 7a95 b7be
00000350: 7f02 3a3d 8f98 213e a61d bebe 9588 dc3e
00000360: a13f ddba 1087 c83e 882a 333e ae2e 26be
00000370: 0005 cf3d 0d75 3c3f 71ee 653e 462e f33d
00000380: 1506 2ebf 11fc 513d f64a 53bf ca58 1c3e
00000390: 5692 073f f76a a7be 986c 59bf 0d19 543e
000003a0: 431e 3fbe 6d4f debc 979f f43e 8e77 acbe
000003b0: c0e5 96be cd60 633e ae10 f8be 3073 52be
000003c0: 4cb9 133f 2457 3dbe 6a28 21bf ba8c c1be
000003d0: 9771 753c a9fa 5b3f df40 24be eee1 17bf
000003e0: c1cc 8b3e 6b81 3cbe 9d30 923e 01bd 063f
000003f0: b443 b03d 82fb 2f3f 053e 2fbd e50b a73e
-0.66985196 0.5140232 -1.7877694 -0.75015455 -1.2870165 -0.6940582 -0.4289875 -1.023316
-0.49264258 0.2306304 0.25401288 -0.56405115 -0.9870882 0.06734163 0.38618597 0.32568273
-0.3033199 0.68496674 -0.96690774 -0.47214136 -0.5973471 -0.5884543 0.16334593 -0.50875545
-0.57650155 0.51617354 -0.8887962 -1.4241892 0.16844092 -0.42467326 -0.7095348 0.35769278
0.4608943 -0.97672975 -0.10216079 0.3677427 0.2334232 -0.4068432 -0.20171435 -0.5897085
0.3860309 -0.45233625 -0.37906402 -0.62621415 -0.51392436 -0.4014998 -0.43175158 0.166162
-0.060158055 -0.02561805 -0.62408763 0.31934547 0.40304038 0.24318618 0.51945144 0.41891247
-0.51081026 -0.560723 -1.3718725 0.046038747 0.07045059 0.44843262 0.1727904 -0.2611584
-0.50758684 -1.1440519 -0.6249504 -1.2670844 -0.7612456 -1.3569015 -0.3133372 0.163023
0.78565437 0.3756298 -0.9453312 -0.0075995526 -0.18402036 -0.054053247 -1.3383825 -0.9399345
-1.3674086 -0.13043852 -0.27333617 -0.5784645 0.52947396 -0.84199035 -0.22352587 -0.4141333
0.5744795 -0.7846219 -0.65568984 -0.34556368 0.40179798 -1.6882117 -0.8661272 -1.4895386
1.4014877 -0.6274888 0.098340176 -0.7105075 -0.6730109 -0.71399426 -0.00140586 1.6698943
-0.35597646 0.047490854 -1.0847212 -0.03176084 -1.1839645 -0.4595527 0.3552173 -0.4614909
-0.844301 0.60705036 -0.9624935 0.15869126 -1.1364833 -1.5461271 -0.9165383 -0.3312853
-0.31578174 -0.3699484 -0.23012127 1.5242114 -1.3187324 -0.867318 -1.9132398 0.87185806
-0.015045505 0.034477144 -0.09252024 -0.049209088 0.24435313 0.22297323 -0.043557063 0.61184984
-0.36917168 -0.13832636 0.07143097 0.12938714 -0.57719725 0.49400732 -0.10396814 -1.7305688
-0.3452679 0.213736 -0.25691465 0.42651704 0.084700085 0.3441353 0.31054747 0.014168804
-0.92202383 0.5335353 0.14431544 0.1535836 0.09381689 0.22815472 -0.4114716 -0.11038564
0.5562363 -0.08710905 0.6069234 -0.47203642 0.6673916 -0.30046812 -0.10176186 0.3522214
-0.56734335 -0.8364831 -0.60380405 0.44269198 -0.107640125 0.046699796 -0.5648793 0.024436362
0.44343492 -0.6295532 0.4019353 0.31044468 0.72770506 -1.1120782 -0.5027129 -2.1623852
-0.26331234 -0.16803782 -0.057498638 0.55714196 0.31604198 0.02526592 0.18530743 0.19827904
-0.5144693 -0.49865943 0.18106493 -0.21897836 0.38706735 -0.4838028 0.27107614 -0.005519073
-0.1818972 0.096454464 0.25418332 0.13791153 0.3158792 -0.4589187 -0.7598601 -0.7258879
0.46249524 0.6250019 -0.38533172 -0.3585623 0.045412537 0.15780853 -0.37131995 0.43072954
-0.0016879925 0.39165545 0.17496693 -0.16228744 0.101083755 0.73616105 0.2245424 0.1187406
-0.6797803 0.05126578 -0.82536256 0.15268245 0.52957666 -0.32698795 -0.84931326 0.20712681
-0.18663888 -0.027137483 0.47778007 -0.33684963 -0.2947216 0.22204895 -0.48450226 -0.20551753
0.57704616 -0.18490273 -0.6295229 -0.37802678 0.014980695 0.8592935 -0.16040371 -0.59329116
0.27304652 -0.18408744 0.28552714 0.5263215 0.08606663 0.68743145 -0.042783756 0.32626262

fc2.bias f4 [128]
00000000: 4e13 72bf 88b9 9abf 6a84 e0bc 7182 31bf
00000010: 30c1 a33e 050a 613f 8d02 73be c351 0a3f
00000020: 7ffe 31bf 3b78 04bf c013 f83d becc 5dbf
00000030: 8b9a e63e bdd5 82bf 3a45 403e dbf8 92bf
00000040: 6ba5 42bd b6da 50bf 6fe5 933f 55aa 40bf
00000050: f2eb e8be d65e 4d3d 012a 9f3f 862e 59bf
00000060: 15d2 d0bd 999a d0bf 85a7 a4bf fac4 ccbe
00000070: 8a10 6bbf c960 9fbf a341 57bf f5f8 4ebf
00000080: c75e 88bf 54eb 1d3f 2cae eb3e 13b8 b43e
00000090: b7ef da3d c3cd 82bf d829 3cbf 0f97 8fbf
000000a0: 832f 5e3e 8ee9 50bf 635a 98bf 53ad 83bd
000000b0: 65d1 96bf b821 6ebd 88b6 4ebf 9158 77bf
000000c0: 7cd4 03be 0e1d d83f 8c2c 84bf 558a 75bf
000000d0: 4d00 893e a029 edbe 899a 2dbf d3c4 0cbe
000000e0: 7a37 8ebe 058d 59bf 8365 7ebe 2d58 a8bf
000000f0: e6ce ab3c 969e 6dbf 0038 84bf 513a 5dbf
00000100: 37cb f3bd cc54 bebe 2c0a 22bf 07e5 1fbf
00000110: 3f83 c3bd 9636 49bf d7d5 7cbf 5524 84bf
00000120: a826 083f 28a1 9abf b9a7 88bf 3ab4 dfbe
00000130: abd2 4dbf 1b41 d3bf 4ea6 8cbe 0b70 11bf
00000140: 3530 133c 3f7f 50bf 1eed 61bf 297d 3a3f
00000150: d195 a93e 12cd a6bf 7694 60be e116 2bbf
00000160: bfdc 773f dd7c 7dbf f80c 4fbf 31ce 2ebf
00000170: c917 9fbf 0d80 46bf 613f 86bf 1270 5bbf
00000180: e29d 79bf a1d1 233d b088 35bf 1544 a7bf
00000190: 9813 f6be 6ecf b7be 6c84 49bf 2897 84bf
000001a0: 41a6 71bf 2cf9 53bf 03f3 20bf 54b8 2cbf
000001b0: e3db b1bf 184c 72bf 6345 5bbf 94f4 7dbf
000001c0: 4525 28bf 3a1b 46be eadd 9cbf 3898 b33e
000001d0: 6d58 97bf c9d9 37bf 813f a13d 11fe 5cbf
000001e0: 871d 6f3f 7e5d 2e3f aaa1 523d b15b 91bf
000001f0: 1f2c a1bf 7de2 44bf b7a7 823e 4b11 71bf
-0.94560707 -1.208787 -0.02740689 -0.6933966 0.31983328 0.87905914 -0.23731442 0.5403101
-0.69528955 -0.5174596 0.12113142 -0.86640537 0.45039782 -1.0221478 0.18776408 -1.1482195
-0.047521036 -0.81583726 1.1554393 -0.75259906 -0.45492512 0.05013927 1.2434694 -0.84836614
-0.1019632 -1.629718 -1.2863623 -0.3999403 -0.9182211 -1.2451411 -0.8408453 -0.8084863
-1.0653924 0.6168721 0.4603132 0.35296687 0.10690253 -1.0219043 -0.7350135 -1.1217974
0.21697812 -0.81606376 -1.1902584 -0.06429543 -1.1782652 -0.058137625 -0.8074727 -0.96619517
-0.12874025 1.6883867 -1.0326095 -0.959142 0.26758042 -0.4632082 -0.67813927 -0.13746957
-0.277767 -0.84980804 -0.24843411 -1.3151909 0.02097268 -0.9282011 -1.032959 -0.8641711
-0.119039945 -0.3717407 -0.6329677 -0.62458843 -0.095465176 -0.78598917 -0.98763794 -1.0323588
0.53183985 -1.2080431 -1.0676185 -0.4369219 -0.8039958 -1.6504244 -0.2747063 -0.5681159
0.008983661 -0.8144416 -0.8825244 0.7284723 0.33122113 -1.3031332 -0.21931633 -0.66831785
0.96821207 -0.9901865 -0.80879164 -0.68283373 -1.2429134 -0.7753914 -1.0488092 -0.8571788
-0.97506535 0.03999484 -0.70911694 -1.3067652 -0.48061824 -0.35900444 -0.78717685 -1.0358629
-0.9439431 -0.8280208 -0.62870806 -0.6746876 -1.3895229 -0.9464736 -0.8565275 -0.9920132
-0.6568187 -0.19346324 -1.2255223 0.3507707 -1.182386 -0.7181669 0.078734405 -0.86325175
0.9340443 0.6811141 0.051423706 -1.1356107 -1.259159 -0.76908094 0.2551858 -0.9416701

fc3.weight f4 [1, 128]
00000000: 82ef 62be 8ac6 c3bd 6838 a83d 659d 6b3d
00000010: 0459 623d cef3 913d d871 943d 990a 913d
00000020: 18e9 853d 6c07 a3bd e5bd 5b3d 1e8e 93bd
00000030: 00c2 8c3d f231 00be 8ddb 953d b4ab d0bd
00000040: 0438 803d a3cd 9bbd 128b 683d 34c9 8a3d
00000050: 94f9 8d3d c773 773d eebd f13d 9b00 d1bd
00000060: b29c 893d d53b 16bd 9e34 45bd 6591 f03d
00000070: 2a4b d4bd c0fc dfbd fb36 5c3d 6941 2bbd
00000080: e7b5 7d3d e1f2 503d 338a a73d c8c2 673d
00000090: b899 4c3d 80f4 aabd f003 b2bd c155 21be
000000a0: 90a9 173d c54a 5abe a915 bdbd a4bd 963d
000000b0: 221a e93d afdb 6e3d c371 9fbd 657e 3dbd
000000c0: 8bcf fc3c 03c7 2c3e 2fba 70be 484f 32bd
000000d0: dca3 483d 7b51 303d 3d2c 463e 69d7 653d
000000e0: 9245 9a3d 3ca7 2c3e 1475 083d 9aee 303e
000000f0: e0a4 543d 7b69 92bd f353 61bd 2c6b b2bd
00000100: 6f87 593d 3823 783d ef8a 5a3d 06d4 e53c
00000110: 4131 803d 818a e6bc ce51 633e 493e 0d3e
00000120: ec74 8f3d 477c e4bd 1531 81bd 6869 debd
00000130: e48f 26be 19ef 943d e0ec f03c cd09 943d
00000140: 256f 353d 2317 21bd 5e95 bebd d8cf 773d
00000150: 59e3 763d 3c3e 0ebe fad1 8a3d d5a1 613d
00000160: 65b7 833d 9283 a9bd bade d8bd 9102 90bd
00000170: 083d 333e 012c c6bd 434a 16bd 6de6 a9bd
00000180: f82a ba3d 893c 453d a018 8cbd b62d 0b3e
00000190: 3215 993d 9ff2 773d 29df 97bd f237 2abe
000001a0: 17ad 47bd 218a 5b3d 6ec1 b63d d70c 7d3d
000001b0: ff80 12be 8f23 b7bd 3847 9bbd 0edc aebd
000001c0: fbdc dd3d 3846 8c3d f00d 53bd f06c 5a3d
000001d0: b7c0 6dbe b1f4 cebd 0c85 833d 8625 cebd
000001e0: f12f 723d f733 953d 0d95 2a3d b7bc b13d
000001f0: 003b a83d c465 e1bd 4c31 f73c 2a63 a8bd
-0.22161677 -0.09559353 0.08213884 0.05752315 0.055260673 0.0712658 0.072482765 0.070820995
0.065386 -0.079604 0.053647894 -0.07204841 0.0687294 -0.12519053 0.073172666 -0.10189
0.06260684 -0.076075815 0.056773253 0.06776658 0.06932369 0.06041315 0.11803804 -0.102051936
0.067193404 -0.036678154 -0.048145883 0.11746482 -0.10365899 -0.1093688 0.05376337 -0.041810427
0.061941054 0.051012877 0.08180656 0.056582242 0.049951285 -0.08347416 -0.08692157 -0.15755369
0.03702694 -0.21317585 -0.09232647 0.0736039 0.113819376 0.058314975 -0.0778537 -0.046263117
0.030860683 0.16872792 -0.23508523 -0.04353264 0.048984393 0.043046456 0.19352813 0.056113634
0.07532801 0.1686067 0.03331478 0.1727852 0.05191505 -0.07149025 -0.0550117 -0.08711848
0.053107675 0.060580462 0.053355154 0.028055202 0.062593944 -0.028142216 0.22199175 0.13793291
0.07004723 -0.111565165 -0.0630819 -0.108599484 -0.16265827 0.07272167 0.029409826 0.07228432
0.04429545 -0.039328706 -0.09305833 0.06050095 0.06027541 -0.13890928 0.06778331 0.055085976
0.06431464 -0.08277048 -0.10589357 -0.070317395 0.1750375 -0.09676362 -0.036691915 -0.08295903
0.09090227 0.048153434 -0.06840634 0.13591656 0.07474746 0.060534116 -0.07415611 -0.16622904
-0.048749056 0.053598527 0.089236125 0.061779823 -0.1430702 -0.08942329 -0.07581943 -0.08538066
0.10833164 0.06849331 -0.051526964 0.053326547 -0.23218046 -0.10105265 0.06421861 -0.10065751
0.05912775 0.07285302 0.041646052 0.086785726 0.08214378 -0.110057384 0.030174874 -0.08222039

bn.weight f4 [128]
00000000: 6676 ae3e 49b3 7b3e 921f 823e 5785 853e
00000010: dbe8 8b3e 6bd0 0a3f e743 803f d18d bb3e
00000020: 337c 153e 7499 953e 45c1 893e a292 8d3e
00000030: 5b0a 663e 6134 a33e 3239 753e 12e0 ba3e
00000040: 17e2 d03e d676 c63e ae33 f03e 05fe a33e
00000050: dc9a 553e ff50 bc3e 02ec 4c3e 4d49 703e
00000060: 9d15 bc3e 2727 613e 456e 673e 4a9d 383e
00000070: 5a39 4f3e 4353 733e 61e5 773e d1b1 7e3e
00000080: 7324 9b3e e25a 6c3e 6d5b 613e 39ad af3e
00000090: 8fbf 843e 1c5f 633e 1fde a93e 482e 853e
000000a0: a4eb 3e3e 26cc 953e 7473 693e 4868 033e
000000b0: c0e4 4c3e c40e 8a3f a25a 8a3e e9a1 773e
000000c0: c26b 303f 449e 9a3e 66c4 9d3e 963f 313f
000000d0: 71a8 3e3f 79b6 fd3e 05c7 3a3e 29cf fe3e
000000e0: 512f 973e e6e5 523e f1a5 733e 4ca5 7d3e
000000f0: 2f31 963e bd7e 833e 2901 993e f931 743e
00000100: ced1 933e 4212 983e fdde 623e f34f 683e
00000110: 71db 573e f4e1 ac3e d091 093f 35f1 b83e
00000120: 3606 963e 0984 873e 63a4 8f3e 24a7 d13e
00000130: f40b 183f 8f69 9b3e 0b06 b13e 93be 983e
00000140: c7e9 5d3e 7812 263e dd06 473e 466f 723e
00000150: 8108 bf3e 6f0c 793e a696 473e ebdb 493e
00000160: f227 ac3e 93c0 823e 3fdb 483e 3676 2e3e
00000170: 22a2 e83e 1286 983e 9edd 383f 0fd9 603f
00000180: c71e 1e3e a164 853e 3267 b73e 4dcd 3f3e
00000190: e3c0 6f3e 472b 573e 0101 763e 8724 52be
000001a0: 77d0 843e ae4d 4c3e 5468 b73e 669b 2e3e
000001b0: 1349 073f 8aa1 8b3e 7e44 933e 133a 5b3e
000001c0: 505b aa3e d695 933e 3362 7e3e 5cf7 053f
000001d0: 4ea2 5d3e 08f8 bb3e 3906 533e 6fcb 273e
000001e0: ce54 603e d2fb 713e 4f4e 6f3e 76c6 45be
000001f0: 36b0 8e3e fe40 513e 73de 413e db17 933e
0.34074706 0.2458011 0.2541471 0.26078293 0.27326092 0.5422427 1.0020722 0.36631635
0.1459816 0.29218638 0.26905265 0.27650934 0.22464888 0.318759 0.239476 0.36499077
0.40797493 0.3876254 0.46914428 0.3202974 0.20859855 0.36780545 0.20011905 0.23465462
0.3673524 0.21987592 0.22600658 0.18028751 0.20236722 0.2376223 0.24208595 0.24872519
0.30301246 0.23081544 0.22007532 0.34311846 0.25927398 0.2220425 0.33177277 0.26011872
0.18644577 0.29257315 0.22797948 0.12832749 0.20009136 1.0785756 0.27022272 0.24182858
0.68914425 0.30198872 0.30813903 0.6923765 0.7447577 0.49553278 0.18239982 0.49767426
0.29528287 0.20595512 0.2379377 0.24770087 0.293344 0.2568263 0.29883698 0.23847188
0.28871006 0.2970143 0.22155376 0.22686748 0.21079804 0.3376614 0.5373812 0.36121526
0.29301614 0.26467922 0.28055105 0.4094783 0.5939324 0.30353972 0.34574923 0.29832897
0.2167121 0.16217983 0.19436212 0.2367526 0.37311175 0.2432115 0.19491062 0.19712798
0.33624226 0.25537547 0.19614886 0.17037281 0.45436198 0.29789788 0.7221316 0.87831205
0.15441428 0.26053336 0.3582092 0.1873066 0.23413424 0.21012603 0.2402382 -0.20521747
0.25940296 0.19951507 0.35821784 0.17051467 0.5284588 0.27271682 0.28763193 0.21408872
0.3327279 0.28825253 0.24842148 0.52330565 0.21643946 0.3671267 0.20607843 0.16386198
0.2190735 0.23631218 0.23369716 -0.19313988 0.27868813 0.20434949 0.18932514 0.28729138

bn.bias f4 [128]
00000000: ee78 3c3d 43af 2a3d 97cb 193e c03f 933d
00000010: 3121 073e ccd5 563e 1689 9b3e 2658 8d3d
00000020: 4d0f 813c 563a 213d dcbb 873d 6c47 483e
00000030: 72a3 1e3e 4e1d d23c eaa9 983d edd3 313d
00000040: 1e8d 463e dad8 c03d b1a4 9f3d ee2b 783d
00000050: fa45 733d a720 093d 5aa4 ff3d a0c8 a73d
00000060: 8bbc 173e a09a 6c3d 93ac 0a3e 7335 ad3c
00000070: 11f8 0c3c 5388 b6bc 955e 7b3b 409e 003d
00000080: f9e7 15bd 306a 1f3d ae3b 943c deba 6e3d
00000090: 9ba6 8d3d 276e 633c 8418 a53d 550c 6a3c
000000a0: 9b08 d1bb 8145 113d 4106 633d f389 403c
000000b0: 823e 4cbc 3867 9b3e 2a17 633d 43fb 593c
000000c0: f853 8d3e 46b0 733e 977e dc3d 72d1 993e
000000d0: 90e4 443e 09d5 313e f0a6 76bc a43b a53c
000000e0: efa7 7c3d 416b 693d f23d 623d 70d1 de3d
000000f0: 834d 38bd d1db 603e 0ca0 183c 2056 5b3d
00000100: b2d0 01bd 8fbc 1a3d d76e 563c 98e9 703e
00000110: 8959 5a3d d644 5f3d 7c08 0d3d e6c7 013e
00000120: 906a d5bc d71c 913d 13f8 0d3e 4020 923d
00000130: a770 913e 1bec a9bc a018 dc3d f9d1 04bc
00000140: 5208 f23d 6d01 3abd 74a1 aabc cce5 743e
00000150: 17ff dfbc 610e 893d 6037 3d3d 3b02 44bc
00000160: 2989 7fbd 9d76 73bc 8d58 493d 0009 48be
00000170: e01e 4a3e 5240 003e 8a66 9c3e 6320 093f
00000180: 1cca 69bd 90f6 993d de40 213e c7bf cd3c
00000190: 12b0 973d 63e8 113e 9e24 44bd 5fcf aebd
000001a0: 1158 113e ac1a ef3c fbf0 bf3d 23f2 493d
000001b0: 341c 013e ec63 a03d 0dce 2f3e 77ac 583d
000001c0: 76a7 de3d 7b8f 643d 0c08 9c3e be77 4b3e
000001d0: a0b7 1d3d ae76 dc3d eeb7 0e3e 3dd9 1d3d
000001e0: c671 093c ac4f 153e cfdb 60bc 9548 d5bd
000001f0: 4859 953d 3342 adbb 88a0 fb3d f03f 913d
0.046013765 0.04167105 0.1501907 0.07189894 0.13196255 0.20979995 0.30378026 0.069015786
0.015754366 0.039362274 0.06627628 0.19558495 0.15492037 0.02564874 0.074542835 0.043415
0.1938977 0.09416361 0.07795084 0.06058877 0.059392907 0.033478405 0.124825194 0.08192563
0.14818017 0.05776465 0.13542394 0.02114365 0.0086040655 -0.022281801 0.0038355936 0.03140092
-0.03659818 0.038919628 0.018094864 0.05828368 0.06916543 0.013881243 0.080613166 0.014285167
-0.0063791997 0.035466675 0.055425886 0.01175164 -0.012466075 0.30352187 0.055442013 0.013304534
0.27603126 0.23797712 0.107663326 0.30042607 0.19227815 0.17366423 -0.015054449 0.02017004
0.06168359 0.05698705 0.055234857 0.10879791 -0.044995796 0.21958853 0.009315502 0.053548932
-0.031693168 0.03777748 0.01308795 0.23526609 0.053308044 0.054509006 0.03443192 0.12673911
-0.02605179 0.07085579 0.13864164 0.071350574 0.2840626 -0.020742467 0.10746884 -0.008106702
0.11817993 -0.045411516 -0.02082894 0.23915786 -0.027343316 0.06692196 0.046195388 -0.011963422
-0.062386665 -0.014859823 0.049156714 -0.19534683 0.1973834 0.12524536 0.3054698 0.53565043
-0.057077512 0.07517731 0.15747401 0.02511586 0.074066296 0.14248805 -0.047886483 -0.08535647
0.14193751 0.029187523 0.09372135 0.049303185 0.12608415 0.078315586 0.17168446 0.05289885
0.108717844 0.055800896 0.3047489 0.19869897 0.038505197 0.10764824 0.13937351 0.038537253
0.008388942 0.14581174 -0.013724281 -0.104142345 0.0729242 -0.0052874326 0.12286478 0.07092273

bn.running_mean f4 [128]
00000000: f471 823f 7cbe 253f a35a a13f 7dcc e83f
00000010: d673 693f 2124 453f cbac fb3f cff4 833f
00000020: d027 de3f e840 8b3f c541 373f 140f 1140
00000030: be38 9c3f 7cd3 4040 50a2 be3f 29c3 3a3f
00000040: c230 b53f b8a5 623f 5432 083f d2e9 3240
00000050: 3554 5b40 c38e cc3f 6dc1 3b3f dfa2 0940
00000060: 77f5 913f a13f 863f 44a2 583f 3bb4 d93f
00000070: ce88 883f 12a3 c03f a274 863f 7965 893f
00000080: 2e84 0740 e81b fb3f a416 6d3f 3a02 b53f
00000090: a7ab 1f3f f7c1 473f 804a 2e3f c117 7e3f
000000a0: 683a 5f3f 42c3 2740 adf9 1440 e9d3 613f
000000b0: 28f3 1440 9229 0740 f576 cd3f 15b8 bb3f
000000c0: 7dfb b03f e19a 4e40 4f66 0340 53a8 833f
000000d0: 5787 ed3f 171a 8b40 0e12 033f 45fc 4a3f
000000e0: ae4c 723f 805c 2c3f 014a 823f 7daa d73f
000000f0: 1bee a240 40f1 d43f 6561 0d3f bca9 c73f
00000100: 7c08 a43f 7590 eb3e ee4e 873f caa3 fd3f
00000110: 8ec7 2940 e985 7e40 92a9 dd3f aa4f 8c3f
00000120: 9e10 a13f 5a70 343f c746 9340 dc7d 863f
00000130: b1a8 d93f 6d8d ce3f 171c f33f 8eff 4740
00000140: c99c b640 969b 8d40 7d19 cf3f 3178 1440
00000150: 3f94 6c3f a146 4a40 c7f6 1540 68d8 0140
00000160: 64a0 b43f a177 463f ec48 6a3f a445 ce3f
00000170: 89c9 943f 9049 713f 18db c13f ed65 9d3f
00000180: 2b9c 653f f081 943f 6df3 a33f e09f 503f
00000190: 0fad 8d3f a73f d53f 5d23 7e40 98e6 5c3f
000001a0: 8635 8f3f b273 f93e 1ff5 bb3f 2fce 4340
000001b0: 6c8f 6a3f 3ddb 1740 4880 4a40 d7e1 3440
000001c0: 3124 a43f a86b a03f deb3 4d40 a947 b93f
000001d0: a0ff 0d40 a67c 0f3f 60e9 253f e227 a13f
000001e0: d60b 8040 76d8 903f 2d09 0a40 cfc4 d13f
000001f0: e9b8 8d3f 1d3d a83f 38d0 a33f 5912 653f
1.0191026 0.6474378 1.2605785 1.8187405 0.91192377 0.77008253 1.9662107 1.0309085
1.73559 1.0879183 0.7158473 2.2665453 1.2204816 3.012908 1.4893284 0.7295404
1.4155505 0.88534117 0.53201795 2.7955213 3.4270146 1.5981067 0.7334202 2.1505659
1.1403035 1.0488168 0.846226 1.7008127 1.066675 1.5049765 1.0504344 1.0734092
2.1174426 1.9617891 0.9261267 1.4141304 0.62371296 0.7803034 0.6808243 0.99254996
0.87198496 2.6212926 2.327739 0.88213974 2.327341 2.1119123 1.6051928 1.4665552
1.3826748 3.228203 2.0531194 1.0285743 1.8556927 4.346935 0.51199424 0.7929118
0.94648254 0.67328644 1.0178834 1.6848904 5.0915656 1.6636124 0.5522674 1.5598674
1.2815089 0.4600865 1.0570962 1.981561 2.6528049 3.9769232 1.7317374 1.0961812
1.2583196 0.70483935 4.60239 1.0507159 1.7004606 1.613691 1.8992947 3.1249728
5.706639 4.4252424 1.6179653 2.319836 0.92413706 3.1605608 2.343187 2.0288334
1.4111447 0.7752629 0.9151752 1.6115003 1.1624004 0.9425287 1.5144987 1.229673
0.8969142 1.1602154 1.2808663 0.8149395 1.1068438 1.666005 3.9709084 0.8628936
1.1188209 0.4872108 1.468418 3.0594594 0.91625094 2.3727562 3.1640797 2.8262842
1.2823545 1.2532854 3.2141032 1.4474994 2.218727 0.56049573 0.64809227 1.2590296
4.001445 1.1316059 2.15681 1.6388186 1.1072055 1.314365 1.2797918 0.8948112

bn.running_var f4 [128]
00000000: 6d13 9e40 dea5 f13f 2005 ea40 0718 0941
00000010: ccf2 6d40 84a5 2d40 be4d 1841 61b1 8b40
00000020: 10b2 e840 5c0c c040 2a71 8340 f7ad cc40
00000030: f16d b940 3f60 6c41 77d7 bb40 7dc6 3f40
00000040: 1ea3 c340 6732 9240 cf01 2240 b3a9 9141
00000050: 0746 2a41 d995 aa40 e7f9 6c40 7ebc 1741
00000060: b3dc b940 f411 da40 d6af 1c40 030a 1c41
00000070: 04f1 9440 9883 1041 457b ae40 576b b240
00000080: a930 2a41 d914 4341 89ee 8f40 a28e e340
00000090: b484 5e40 e9da 3b40 fb71 5f40 2f1b 9440
000000a0: d0e2 a540 18b0 7d41 d008 da40 5fca e840
000000b0: 897a 6441 899f 1d41 879d 8f40 c007 e340
000000c0: c27e c540 ed50 f840 0f9a 3141 9da7 6a40
000000d0: 242f 0f41 6979 cd41 9d11 d93f 35c7 7a40
000000e0: 6d8b 8d40 30f8 3940 9df1 af40 9bd4 0041
000000f0: 71e3 2942 70cd ec40 22bd 1240 7b05 5f41
00000100: 40d5 bf40 5abd f43f 7049 ca40 1b71 ce40
00000110: 9336 2441 2064 8b41 3d7b f340 9b8e 9740
00000120: 2024 be40 be37 3c40 aef6 0f42 97a8 7e40
00000130: 1abd 0e41 208e d640 0aa7 f640 30fa 7941
00000140: f7f6 f541 ef49 8141 de5d 1841 c0ef 0c41
00000150: e0af 6640 3511 7541 81f5 8f41 443a 4941
00000160: 713d 0141 077c 9640 5bb8 ba40 9878 1741
00000170: 75b8 ae40 5d04 7d40 0026 c240 1e6e 9240
00000180: 7c90 9940 fd2f 9a40 1cb7 ca40 c579 af40
00000190: 4447 f640 f9c3 b740 dd47 5a41 8177 db40
000001a0: 1a78 0840 842f 2540 0927 b340 1b0e 4041
000001b0: 4abd 8640 5b1d 1941 55f6 e940 2132 0341
000001c0: 6cf8 9840 4e79 9840 238e 5a41 136b dd40
000001d0: 1276 4a41 2b5d 5b40 887c 1540 47a0 2641
000001e0: eef1 f141 ec4e ac40 4ef4 8241 6b74 7e41
000001f0: d5f3 5340 a0dd 1d41 58fd d240 15ec a040
4.9398713 1.8878744 7.3131256 8.568366 3.7179441 2.7132273 9.51898 4.3654027
7.271736 6.0015087 4.107564 6.396236 5.7946706 14.773498 5.870052 2.9964898
6.113662 4.5686526 2.5313604 18.20786 10.6420965 5.330792 3.7027528 9.483519
5.808191 6.8146915 2.4482322 9.752444 4.654421 9.032127 5.4525476 5.575603
10.63688 12.19259 4.497868 7.111161 3.4768496 2.9352362 3.4913318 4.6283183
5.183937 15.855492 6.8135757 7.2747035 14.279916 9.851449 4.4879794 7.094696
6.1717234 7.7598786 11.100112 3.6664803 8.949009 25.684282 1.69585 3.9184086
4.4232697 2.9057732 5.498244 8.051906 42.47211 7.400078 2.2927938 13.938838
5.9947815 1.9120286 6.3214645 6.451307 10.263324 17.42389 7.6087937 4.736158
5.94191 2.9409022 35.9909 3.97904 8.921167 6.7048492 7.7078905 15.623581
30.745588 16.1611 9.522917 8.808533 3.6044846 15.316701 17.994875 12.576725
8.0775 4.70264 5.8350043 9.466942 5.4600167 3.9533913 6.0671387 4.575942
4.7988873 4.818358 6.334852 5.4836144 7.6961994 5.7426724 13.642545 6.858338
2.1323304 2.5810251 5.598515 12.003444 4.2106066 9.569667 7.31132 8.1997385
4.780325 4.7648077 13.659701 6.9193206 12.653826 3.4275615 2.3357258 10.41413
30.24313 5.384634 16.36929 15.903422 3.3117573 9.866608 6.5934258 5.0288186
