checkpoint_actor.pth (torch_old, 88985 bytes, 10 tensors)

fc1.weight f4 [128, 33]
000000 06 ed bd bd 7c 89 d1 3b 3a 6a 91 ba e4 03 70 be
       -0.09273724 0.0063945632 -0.001109428 -0.23438984
000010 35 92 c7 be 15 07 a8 3e e1 36 ca bd 53 ae ca 3a
       -0.38978735 0.32817903 -0.098737486 0.001546333
000020 18 72 c2 bd 80 ed 79 be a7 47 3c bd 63 66 aa 3c
       -0.09494418 -0.24407005 -0.04596677 0.020800775
000030 80 5f 7a 3d 68 ce c0 3d e4 e6 e8 3d f2 67 01 bd
       0.061126232 0.09414369 0.11372164 -0.03159327
000040 52 22 56 bc c5 d7 1d 3e 01 48 b5 bd eb 46 cb bd
       -0.013069706 0.15414341 -0.08851624 -0.09925636
000050 14 59 b2 3c 39 89 d6 bb 0f 51 71 bd 54 96 33 bd
       0.021770991 -0.00654712 -0.058915194 -0.043844536
000060 66 c5 10 3e ab 62 f0 bc 90 16 b9 bd 6a e5 03 be
       0.14137802 -0.029343924 -0.090375066 -0.12880483
000070 7a ed 87 3d 2e 10 78 3d 62 42 d9 3d e8 ff 1f bc
       0.06637092 0.060562305 0.10608365 -0.009765603
000080 31 9b 80 3d a7 9b 0c be 78 e5 7f be e1 04 d3 3c
       0.062796004 -0.13731252 -0.24989879 0.025759162
000090 f7 8c bb 3e 86 98 87 be 4a e2 84 3d c6 c6 99 3e
       0.36630985 -0.26483554 0.06488474 0.30034465
0000a0 9e 11 20 be 97 d1 01 3c 12 1a c6 3d b3 c0 27 3d
       -0.1563172 0.007923505 0.09672941 0.040955257
0000b0 eb 56 ba bd 4e 29 b8 3d 84 d9 a9 3d f3 99 c5 3d
       -0.090986095 0.08992253 0.08293441 0.09648504
0000c0 b9 f0 64 3d 15 1e 00 be 60 48 9f bd 45 0f c4 3d
       0.055893634 -0.12511475 -0.07777476 0.09573225
0000d0 44 15 36 be 13 90 45 3d 3e 50 1e bd 66 34 4b bd
       -0.1778155 0.048233103 -0.038650744 -0.049610518
0000e0 a2 f0 3c 3d 7d 8a 0c 3d cb d3 ef 3b 4b d7 59 bd
       0.046127923 0.03431176 0.007318949 -0.053183835
0000f0 3f fd a3 bd e2 b0 a0 bd 48 24 51 3c 99 86 03 3e
       -0.08007287 -0.07846238 0.012764998 0.12844314
000100 00 2a 9b 3a a0 4c 1e 3e a2 81 17 3e 52 83 5a bd
       0.0011838078 0.15458918 0.14795545 -0.053347893
000110 55 66 17 3e d2 e8 55 3d 77 56 16 3d 7b e2 e7 be
       0.1478513 0.052223988 0.036703553 -0.45289978
000120 18 e3 06 3e ae 8c 82 3b 85 9c 9d 3d 7b 1f 14 3e
       0.13172567 0.0039840555 0.07695869 0.14465134
000130 d6 0d a4 3b 58 61 86 bd 0d 2d 54 3c 58 24 dc bd
       0.005006532 -0.065615356 0.012950194 -0.107491195
000140 fc f5 f2 3c 16 f3 02 bd 5a ab 0b 3d ee f0 84 be
       0.02965831 -0.031970106 0.03409896 -0.25965065
000150 7a f2 4b be 9c 3b 91 be 08 58 15 bd 40 d8 1a bd
       -0.19916716 -0.2836579 -0.036460906 -0.03780389
000160 a2 20 2f 3d 97 9a 55 bd 5d f8 4a 3c 17 ca 54 bd
       0.04275573 -0.05214938 0.012388316 -0.05195054
000170 4e 86 0c bc 6c 0d c7 3c 70 75 11 3d 70 86 7c 3c
       -0.008576943 0.024298392 0.035512388 0.015412912
000180 36 1a cf bd b0 08 d7 3b f4 5e d1 3e 93 5b 50 bd
       -0.10112421 0.006562315 0.40892756 -0.050868582
000190 36 79 5c bd fb 67 b0 bd 09 d9 92 3e 49 2c 21 3d
       -0.053826533 -0.08613583 0.2868121 0.039348874
0001a0 80 25 19 3e d4 2f 81 3e 01 89 31 3d 02 95 89 3d
       0.14955711 0.25231802 0.043343548 0.06717874
0001b0 20 21 98 3c fa 87 bf 3c b2 d5 67 bc 51 e2 37 3d
       0.018570483 0.023380268 -0.01415007 0.044893567
0001c0 cb ca 43 3d fc 01 19 3d c4 3e 02 ba ae e1 6b bd
       0.04780082 0.037355408 -0.0004968459 -0.05758827
0001d0 ba b2 9c 3d f2 ed b0 bd 3d 9b 3f be 1f 66 b0 bc
       0.07651277 -0.086391345 -0.18711562 -0.02153307
0001e0 de a4 dd bc 60 96 46 bd e9 63 81 bb 53 c6 50 3c
       -0.027056154 -0.048483253 -0.003948678 0.012742597
0001f0 e7 20 04 bc 5e 88 86 bd 19 38 18 3e 3a a2 a7 3d
       -0.008064485 -0.06568979 0.1486515 0.08185239
000200 e5 dc 0f bd 85 51 7c be 88 81 79 3c e9 93 33 bf
       -0.03512277 -0.24640472 0.015228637 -0.7014757
000210 77 66 b0 bd 9d 68 d8 bd 91 a8 2a 3d a6 d1 93 3e
       -0.086132936 -0.105668284 0.041664664 0.28870887
000220 ea 1c 65 be b4 71 fb bd 97 9f de be c9 d8 17 3d
       -0.22374311 -0.122775465 -0.43481132 0.037071977
000230 47 32 c1 bd 02 de e1 bd 6c de 8b bd e6 4a 75 bc
       -0.09433418 -0.11028673 -0.06829533 -0.01497147
000240 81 e6 de bc 3c f5 3d bd ee 88 48 3e 59 10 a3 3d
       -0.027209522 -0.04637645 0.19583485 0.079621024
000250 e2 f5 92 bd 61 cd 5b 3d 69 97 68 3d 60 0a 41 3e
       -0.07175805 0.05366266 0.05678502 0.18851614
000260 96 71 00 bd 9c 7d 49 bd f1 b2 0b 3d 2d 9f d8 bc
       -0.031358324 -0.049192056 0.0341062 -0.026443088
000270 51 7f 73 bc 1c cf 8e bd 7d a6 82 bd 52 95 7a bd
       -0.014861898 -0.06973097 -0.06379411 -0.06117756
000280 3c 14 b8 3d 52 a5 2f 3d 33 31 52 3b e0 a1 10 3b
       0.089882344 0.04288227 0.0032072782 0.0022069141
000290 f5 59 48 be 4d df 84 3d ce ab 64 3c 56 2d c8 3c
       -0.19565566 0.06487904 0.013956977 0.02443568
0002a0 94 a9 f1 be 0e 09 60 be db 3d 98 3d 73 22 d5 3d
       -0.4719969 -0.21878454 0.07433673 0.10406961
0002b0 4a 99 12 bd 70 51 e0 bd 9a 79 95 3c 10 81 c5 3c
       -0.03579072 -0.10953033 0.01824646 0.024109393
0002c0 b6 6a db 37 e0 8f a8 3c b8 d1 8a bd 02 e6 f6 bb
       2.6156526e-05 0.020576417 -0.06778282 -0.0075347433
0002d0 e2 8e ea bc 25 7a 38 3e 41 b6 ca bd 2e 92 ba be
       -0.028632585 0.18015344 -0.098980434 -0.3643965
0002e0 fc db 26 3d c2 88 d8 bc 64 b3 82 bd 06 3b 20 3d
       0.040737137 -0.026432399 -0.06381872 0.03911879
0002f0 03 ca 51 3b 30 11 e1 39 e3 ba 62 bc 92 16 22 3d
       0.0032011278 0.0004292815 -0.013838503 0.039572306
000300 b7 18 90 3d 84 bc aa 3d 1f 41 94 3d 8d fe 87 bd
       0.07035964 0.08336738 0.07238983 -0.066403486
000310 40 07 fb ba 4f 1d 14 3f bb 97 45 bd 87 7e b0 bb
       -0.0019151941 0.5785722 -0.048240405 -0.005386177
000320 e6 7d dc 3b 5c dc 31 ba a8 5b 61 bd 76 27 86 be
       0.0067288755 -0.000678485 -0.05501905 -0.2620198
000330 08 24 d1 bd a8 d4 85 bc d2 da 70 3b f0 9a 66 3d
       -0.102119505 -0.016336754 0.003675152 0.056300104
000340 37 a7 75 bd b6 c0 23 3b 93 1c e2 bc b3 95 4b 3d
       -0.05997392 0.002498669 -0.027601516 0.04970331
000350 9e d1 3c bc 11 4b 1e bd d9 b6 69 bd c6 61 b1 3e
       -0.011524586 -0.038645808 -0.057059143 0.34644908
000360 80 74 b2 be 3f fa cf 3e 23 44 ac bc 08 a5 10 3d
       -0.34854507 0.4062061 -0.021028584 0.035313636
000370 e1 17 85 bb 42 53 d5 3d db b5 85 bd f5 c7 24 3d
       -0.0040616845 0.10416271 -0.06528827 0.040229756
000380 0f d9 52 bd 5d a8 c1 3c a0 5b d9 bd 9c 50 f0 3c
       -0.051476534 0.023639852 -0.10613179 0.029335313
000390 4f f2 70 bd 00 54 1c bd 23 bb 0d be 64 0d 89 bd
       -0.058824833 -0.038166046 -0.13840918 -0.06692007
0003a0 ec fe f2 3c 1c 23 fb bd 8b 12 e4 bd bb aa 49 be
       0.029662572 -0.12262556 -0.11136349 -0.19694035
0003b0 bd 9b ea bc f0 60 e3 bd 8f 58 44 bd 07 31 4b bd
       -0.028638715 -0.11102474 -0.04793602 -0.049607303
0003c0 2d e0 18 3c 6a d5 97 bb e0 70 1b 3d 3d ae 86 39
       0.009330791 -0.0046335952 0.037949443 0.0002568829
0003d0 ed 95 32 3e 21 07 59 3c c4 25 f0 3d cf 6a 24 3e
       0.17440005 0.013246329 0.11725953 0.16056369
0003e0 f3 18 60 3e 75 61 8f 3e 6d 3d fc 3d 96 a9 c2 bc
       0.21884517 0.2800404 0.123164035 -0.023762506
0003f0 07 79 db bc 0d ac 52 3b 3a 13 1e 3d f0 7d af bc
       -0.026791109 0.0032146007 0.038592555 -0.021422356

fc1.bias f4 [128]
000000 81 40 8b 3d 3a 23 85 3d bf 8a 5e be 17 c5 61 be
       0.067994125 0.065008596 -0.21732615 -0.2204784
000010 8c c2 8f bd 93 d0 16 be 41 43 dc 3d 08 eb aa bd
       -0.07019529 -0.14728002 0.10755015 -0.0834561
000020 f3 0c 77 3d e8 8f 25 be 17 81 db bd 42 d3 cd bd
       0.060315084 -0.16168177 -0.10717981 -0.1005006
000030 1d ab 23 be 18 4f 3f 3e db 99 06 be 03 fa 55 be
       -0.15983243 0.18682516 -0.13144629 -0.20896153
000040 68 3b 88 be 95 9a 95 bd 83 91 02 be ae e5 34 be
       -0.26607823 -0.07304875 -0.12750821 -0.17665741
000050 07 50 7e be a3 74 41 be 00 90 dc bc ec 11 a3 bd
       -0.24835216 -0.1889215 -0.026924133 -0.07962403
000060 75 91 26 be 8d 43 a3 be 3b 54 db bd 73 5d c2 be
       -0.16266425 -0.31887475 -0.10709425 -0.3796192
000070 15 2d 93 bd 84 63 8e bd ec 44 0d 3e 04 05 96 3c
       -0.07186333 -0.06952575 0.13795823 0.018312939
000080 c0 67 2a 3d 43 af 53 3e 85 ac 8c bd 20 3e 38 3e
       0.04160285 0.20672326 -0.06868843 0.17992449
000090 3c 1f 3c be 14 5d 6d bd b3 22 00 bb bc 6b 50 be
       -0.1837129 -0.057950094 -0.0019551932 -0.20353597
0000a0 d4 75 ed bd ab 45 77 3e 97 b2 75 bd 5f f6 b1 bd
       -0.115947396 0.2414767 -0.05998477 -0.0868957
0000b0 42 d6 a5 3d 19 0c d3 bd dd de 77 bd 7e 15 c3 bc
       0.08097507 -0.10305042 -0.060515273 -0.02381396
0000c0 d8 9d 9c bd e1 52 8f 3d 0c 3d 00 be 46 37 41 be
       -0.07647294 0.0699823 -0.12523288 -0.18868741
0000d0 7d f5 0d bd 0e e8 fd bd e3 fb e1 3d ff 12 80 bd
       -0.034657944 -0.123977765 0.11034372 -0.06253623
0000e0 14 bc c7 bd 42 21 09 be b6 5e 05 be ec 9b 26 3c
       -0.0975267 -0.13391593 -0.1302441 0.010169011
0000f0 7b 10 aa bd f0 ce 0d be 9c cd 17 be 57 58 ec bc
       -0.08303925 -0.13848472 -0.14824528 -0.028850717
000100 74 20 b0 3e f7 37 cd 3d 35 00 49 be 28 68 65 3e
       0.3439976 0.1002044 -0.19628985 0.22403014
000110 7a ad 34 be 34 4c ce bd ec dd 84 3d 00 b7 04 3e
       -0.17644301 -0.10073128 0.06487641 0.12960434
000120 c8 bb 9c 3d 8d ca 19 3e 2a 0f 07 3e 87 8d 92 be
       0.07653004 0.15018673 0.13189378 -0.28623602
000130 8b a8 fe 3d 54 6c 6d 3d e2 16 81 3d 07 d4 10 bd
       0.12434491 0.057964638 0.06303193 -0.035358455
000140 ff 11 26 bc e1 3f ff bd 47 07 3c bd 15 68 29 be
       -0.010136127 -0.12463356 -0.045905378 -0.1654361
000150 b9 06 74 bd e4 64 78 3e 77 96 f0 bd 60 43 45 be
       -0.059576724 0.24257237 -0.11747449 -0.19263983
000160 e2 b8 b9 bd c1 e6 7a bd f2 8a e9 3c 07 54 e0 3d
       -0.09068467 -0.06125522 0.028508637 0.10953527
000170 b3 23 2f bd 38 7e d4 3e f3 4c 84 ba d2 6e a3 3d
       -0.042758655 0.41502547 -0.0010093733 0.07980122
000180 60 26 35 be 4e 76 23 be 97 cd 2e be ed c7 b2 3e
       -0.1769042 -0.15963098 -0.17070614 0.34918156
000190 b5 fa c9 bd ab 94 65 be ea 5d b3 bc 4e dc 96 bd
       -0.09862272 -0.22419994 -0.021895368 -0.073662385
0001a0 1b 6a a8 3d 51 8d c9 3d 3d 47 1f 3e f4 de 05 be
       0.08223363 0.09841407 0.15554519 -0.13073331
0001b0 67 93 3a 3d cb 82 d1 bd 04 bd 57 3d 4c 1c 9a 3e
       0.04555073 -0.10230025 0.052670494 0.30099714
0001c0 1d 2c 29 3e 52 c2 e9 3d 19 06 0b be 22 b1 49 3c
       0.16520734 0.11414017 -0.13576545 0.012310298
0001d0 c6 5f 46 3c 17 e0 29 be 86 bf 62 3e 08 db a0 bc
       0.012107795 -0.1658939 0.22143373 -0.019635692
0001e0 72 8d 52 be 07 7e 4e be 9f 9c b9 3c 3b e7 35 3e
       -0.2056177 -0.20165263 0.02265769 0.17763989
0001f0 21 83 c7 bd 4c b9 1e be 6f 9b 0e 3e 53 43 98 bd
       -0.09741808 -0.15500373 0.1392648 -0.07434716

fc2.weight f4 [128, 128]
000000 5f 42 51 3d b8 e0 de bd cc 45 9c 3d 10 51 d0 be
       0.051088687 -0.108827055 0.076305 -0.40686846
000010 f8 f1 2a be 76 f2 4d be 6d 39 37 bd 13 85 96 bc
       -0.16693866 -0.20112023 -0.0447325 -0.018374002
000020 8d 1e 1d 3e 72 49 a3 bc e2 ad 0f bd ab 75 8a be
       0.15343685 -0.019932482 -0.035077937 -0.270429
000030 0f c6 e4 bd 34 ac ec 3d 0b 8d cf be 3f c6 0f bd
       -0.11170589 0.11556283 -0.40537295 -0.03510117
000040 ed 14 cc bd ea 71 8e bb d6 0f b3 bb f3 d4 bd 3d
       -0.09964929 -0.0043470757 -0.0054645343 0.092691325
000050 e2 e5 2e be 4e 00 0c be 28 63 9f bd 98 87 12 be
       -0.17079881 -0.13671991 -0.077825844 -0.14309537
000060 cf 9c 9b be ab d2 ff 3b 41 58 dd bd fb 82 fb bd
       -0.30393073 0.007807096 -0.10807849 -0.12280842
000070 e0 82 80 bd 84 e9 51 3d f2 10 c5 be 8f f4 98 be
       -0.062749624 0.05124809 -0.3848949 -0.29874083
000080 0a c2 84 be 47 53 05 3d fa d2 63 be 68 79 7b 3d
       -0.2592929 0.032550123 -0.2224845 0.06139508
000090 00 79 54 be 7c 61 9a bb 57 9f c1 3d 22 0c 5b be
       -0.20749283 -0.004711328 0.0945422 -0.21391347
0000a0 c0 9c 8f be 0b 6a 19 be 79 55 5c 3d 99 2c ab bd
       -0.28049278 -0.14981858 0.05379245 -0.08358116
0000b0 73 8c 26 3d 5f 38 37 bc 3f cf 8d 3c 2a bd 40 be
       0.040661287 -0.0111828735 0.017310737 -0.1882216
0000c0 3b ce f0 ba 44 1c 42 be bb 04 ca bd fd 51 16 be
       -0.0018372008 -0.18956095 -0.098641835 -0.14679714
0000d0 de 5a 7b be 0d b8 2d be 0e 3c 2d be 9a c9 1b be
       -0.24546382 -0.16964741 -0.1691744 -0.15213624
0000e0 72 5b 44 bd 1a a7 7a 3e ae cc a6 bd 5c ee db bd
       -0.04793877 0.24477807 -0.08144508 -0.10738823
0000f0 67 de f1 bd 41 fe 8f bd ef e0 df 3d b9 b8 61 bd
       -0.11809998 -0.07030917 0.109315746 -0.055107806
000100 1e 35 2c be de 4b 29 3e 9a 4f dc bc 62 ae a8 bd
       -0.16817138 0.16532847 -0.026893426 -0.08236386
000110 df c9 7e be e6 ba 2f be 03 54 cb 3d 8e be 1d 3d
       -0.24881695 -0.1716114 0.09928133 0.038511805
000120 fe 98 7a bd d4 24 1e 3d 0e 36 28 bd c1 0a 6a be
       -0.06118106 0.03860934 -0.041067176 -0.22855665
000130 96 90 55 bd 40 ff 1f 3d d0 36 58 3d d8 97 21 3d
       -0.05213984 0.039061785 0.05278665 0.03945145
000140 04 c4 c0 3e 37 ab 4b 3d a5 d2 cb 3d 94 89 b4 3d
       0.37649548 0.04972383 0.09952287 0.088153034
000150 e0 ba 40 be 89 2c 49 3d 7a 99 a8 3b 7e 36 3b be
       -0.18821287 0.049114738 0.005145249 -0.18282506
000160 8d 11 d0 bd 6c df b5 bc 84 c8 06 be 9a 8e 0a 3e
       -0.101595975 -0.022201262 -0.13162428 0.1353096
000170 f3 3e c0 3d 83 eb 6a bd 01 67 2c 3e dd 14 90 bd
       0.093870066 -0.057353508 0.16836168 -0.07035229
000180 e4 ca 80 bc 83 fc f7 bd 01 1c ce 3e e9 04 6b 3e
       -0.015721746 -0.1210871 0.4025574 0.22951092
000190 1b c2 a2 3d 46 48 2e be 2b 03 4d 3e af 0f 2f bc
       0.07947179 -0.17019758 0.2002074 -0.010684892
0001a0 6b 3b e3 bd 2f 61 70 bd 91 92 57 bc 00 da a6 bd
       -0.110953175 -0.05868643 -0.013157503 -0.08147049
0001b0 2d c4 72 be fc 48 09 bf 06 46 d8 3c f3 39 89 3d
       -0.23707648 -0.5362699 0.026400577 0.06700506
0001c0 fd 2f c9 bc 2a 92 93 ba 34 6e 27 be 34 6d ae 3d
       -0.024559015 -0.001125877 -0.16350633 0.085169226
0001d0 56 51 1d be 1d 5f 78 3e 9c c3 cb bd 04 79 78 bc
       -0.15363058 0.24255033 -0.09949419 -0.015165571
0001e0 a6 b0 35 39 89 87 e4 3d e7 f8 65 3e 61 0f 71 3d
       0.00017327312 0.11158664 0.2245823 0.058852557
0001f0 cb b8 88 3e 18 87 3a 3d b5 60 b9 be 37 ae 01 be
       0.26703486 0.04553899 -0.36206594 -0.12664114
000200 32 01 be 3d f8 fb 46 3c ab db b1 be aa fc 34 be
       0.09277572 0.012145035 -0.34737906 -0.17674509
000210 d1 73 03 be a5 b8 9e 3d f7 31 5c be d2 0f a6 3d
       -0.12837149 0.07750062 -0.21503435 0.08108486
000220 fb aa be bc 2d 5f 9c 3c 02 9b a5 bb 97 05 71 be
       -0.02327489 0.019088352 -0.0050538788 -0.23537289
000230 41 ae e1 bd e8 2d dd 3d 5a 21 fe 3c 7e c4 83 be
       -0.110195644 0.107997715 0.031021763 -0.2573585
000240 c5 22 69 be 52 41 ce bd dd f1 12 be 9a 3c 55 3e
       -0.2276717 -0.100710526 -0.14350076 0.20823899
000250 39 06 16 be f7 0e 39 3e c3 09 e7 bc ee ec b7 3d
       -0.14650811 0.18072115 -0.028202897 0.089807376
000260 86 21 90 be 33 45 48 be 1b 24 e5 bd db 06 c9 bd
       -0.28150576 -0.19557647 -0.11188527 -0.09815761
000270 c7 27 ac 3d c0 63 db bc 42 1f 56 3e 09 1d 55 be
       0.084060244 -0.026780963 0.20910361 -0.20811857
000280 7d 13 43 3e 2a 1c 4e bc 01 7c 7e 3b af e8 3a 3e
       0.19050403 -0.012579957 0.0038831236 0.18252824
000290 05 7c 6c be 00 e1 f0 3d 49 34 05 3c 3c d4 6d 3e
       -0.23094185 0.11761665 0.0081301415 0.23225492
0002a0 bf 33 b1 bb 90 8a 8c be c8 7f ac bc 7f c9 53 3d
       -0.00540778 -0.27449465 -0.021057025 0.051705834
0002b0 7c 00 c0 3c 6a 92 00 3e 00 7e bc 3e ed dc 0e be
       0.023437731 0.12555853 0.3681488 -0.13951464
0002c0 7e 01 3f 3e df 57 76 bc 44 5c 41 bd 5f a9 a1 3c
       0.18652913 -0.015035599 -0.047207132 0.019734083
0002d0 1b 96 0d be 63 ed b6 bd 19 7b 4e bd 5a 57 3b be
       -0.13826792 -0.08931997 -0.050410364 -0.1829504
0002e0 e3 56 01 3e f6 25 44 3e a4 d5 f3 bb 22 f3 e5 3d
       0.12630801 0.19155106 -0.0074412394 0.112280145
0002f0 d4 25 d7 3d c2 06 08 be aa c6 6e 3e 49 89 cf bd
       0.10505262 -0.13283828 0.23317972 -0.10133607
000300 74 96 1d be 1c 8d 99 bb 9c 8b bc bc 0d 45 9e 3c
       -0.15389425 -0.004686011 -0.02301579 0.019320035
000310 1a 3a c0 bd 25 10 2b be 77 34 af bd 33 63 56 3e
       -0.09386082 -0.16705377 -0.08554929 0.20936279
000320 8b b6 65 3d 89 53 18 bd 2a 4c c9 3c 68 6f 2c 3d
       0.05608229 -0.03718904 0.02457245 0.042098433
000330 be 20 ef 3d ac d0 51 bd 23 dd 0e be 2e 68 01 be
       0.11676167 -0.051224396 -0.13951544 -0.12637398
000340 50 3a 81 3e e4 e0 dc bd 12 42 17 be 86 53 8b 3d
       0.252398 -0.10785082 -0.14771298 0.0680304
000350 f5 cf 95 3b b8 fa 09 be ba f1 6d 3e 6c 80 b1 bd
       0.0045719096 -0.13474548 0.23236743 -0.08667073
000360 a6 6b cd 3c df 2b 87 3c bd d9 aa bd 0a f8 d5 3d
       0.025075745 0.016500412 -0.083423115 0.104477
000370 72 8a 98 3d 9d b0 8e bd 2a e4 91 3e 45 bd d9 bc
       0.07448281 -0.0696728 0.28494388 -0.026579509
000380 f6 13 37 3e 93 fd 62 bd 7b a1 25 3e 59 05 cf be
       0.17878708 -0.05541761 0.16174881 -0.40433767
000390 68 d9 8e 3e bd 64 63 be c6 39 86 be 9f 5d 49 be
       0.27900243 -0.22206397 -0.26215953 -0.1966462
0003a0 83 fa 50 3d 8e 35 bf bd b4 50 cc 3d 4e 46 09 be
       0.051020157 -0.093363866 0.099763304 -0.13405725
0003b0 cd 52 32 3e 20 e6 cd bd 4a b4 fc ba 28 5e 02 be
       0.17414398 -0.100536585 -0.0019279805 -0.1273123
0003c0 7b ad ca bb 48 36 c3 bd 19 4c 21 3d 93 b3 5d be
       -0.0061852313 -0.09531838 0.039379213 -0.21650533
0003d0 cc b8 97 bd 80 c4 7b 3d c5 08 a7 3d b1 99 12 be
       -0.07408294 0.061466694 0.081559695 -0.14316441
0003e0 62 9a 19 3e eb 67 db 3d 7a 34 62 be 09 10 5b bd
       0.15000299 0.1071318 -0.2209033 -0.05348209
0003f0 af 41 6a 3e c1 af 59 3e b2 22 38 bd c3 01 55 be
       0.22876619 0.21258451 -0.044954963 -0.20801453

fc2.bias f4 [128]
000000 b4 ab f1 3d fc 25 56 3e 64 d1 44 be a3 ae 0a 3d
       0.11800328 0.20912927 -0.19220501 0.033857953
000010 67 2b 6f 3d f8 5d 04 be 6c 53 d8 3d 98 fa ad be
       0.058391 -0.12926471 0.105627865 -0.3398025
000020 1e a0 f6 3d 3f 9f 3a 3d 6c 76 c1 3c 0a e6 52 3e
       0.12042259 0.045562025 0.023616038 0.20595565
000030 9b 56 c7 3d 2d df fe bd f0 ec 21 3d 59 e3 f9 bd
       0.097333156 -0.12444911 0.0395326 -0.12201566
000040 a8 01 c2 3d a4 6c d1 bd c5 9a 18 3c e1 a7 b9 bd
       0.09472972 -0.102258 0.009314244 -0.090652235
000050 1f dc ab bd 75 2c b8 bd 50 fc 07 be d3 f6 48 3d
       -0.08391594 -0.089928545 -0.13279843 0.049063515
000060 dd 20 0c 3e 73 e1 b1 3c 7b 52 7f 3d 5d 68 6e bd
       0.13684411 0.021713948 0.06233452 -0.058204997
000070 2c 34 d5 bc fb 93 d1 3d f7 8f 23 3e 5a fa 24 bd
       -0.026025854 0.10233303 0.15972887 -0.040277816
000080 91 82 95 3d f5 61 87 3d 5b 44 6a be b4 81 2e be
       0.07300294 0.06610481 -0.22877638 -0.17041665
000090 06 e8 00 be cc 9f 58 3d 9a 6d 30 3d 69 78 88 3d
       -0.1258851 0.05288677 0.043073274 0.066635914
0000a0 5c d9 ca 3d df 34 55 bc e5 68 ba bd 51 3d 5e 3c
       0.09904739 -0.013013094 -0.09102038 0.013564424
0000b0 22 a4 1d bd 43 16 94 3d c2 2a 1f be 51 cd 36 bd
       -0.038486607 0.072308086 -0.15543655 -0.0446294
0000c0 fd be ec bd bc 79 3f bd a0 26 6f 3d 85 04 82 bd
       -0.115598656 -0.046746954 0.058386445 -0.06348518
0000d0 2c ff 9d 3d 14 48 0f bd 55 d1 ae bd f6 98 98 3b
       0.07714686 -0.03498085 -0.08536021 0.0046569062
0000e0 30 df aa bd ff 82 ac bd f6 38 a8 bd f5 1b 30 3d
       -0.08343351 -0.08423423 -0.082139894 0.042995412
0000f0 9b 16 e6 3c 59 36 4a bc ea a5 fe bd 57 b1 59 3c
       0.028086951 -0.012342059 -0.12433989 0.01328691
000100 cd 5e 4d be 4f 8c 30 3e 7b 29 02 bf ab f0 be 3c
       -0.20055695 0.17241023 -0.50844544 0.023308119
000110 26 94 18 3e 23 41 ef 3d 64 e8 47 be 22 97 77 bc
       0.14900264 0.11682346 -0.19522244 -0.015111716
000120 08 ee 14 3d 64 2e 27 3c 93 15 4b 3d 70 ad c6 3d
       0.036359817 0.0102039315 0.04958112 0.09701049
000130 67 e6 e1 bd 23 20 2a bc b2 5f 40 3e 23 91 44 be
       -0.11030274 -0.010383639 0.18786505 -0.1919599
000140 13 48 b5 be 93 fb 84 bd 9a 33 4c 3e b3 19 01 3d
       -0.3540655 -0.064932965 0.1994156 0.03151865
000150 11 c2 1f be 3a fd 87 bd 6f dc ae bd f9 8d 24 bc
       -0.15601374 -0.06640096 -0.08538138 -0.010043615
000160 5a bd 2b 3c 83 a4 74 be 28 05 22 3d 56 fb 9e bd
       0.010482157 -0.23890881 0.0395557 -0.07762782
000170 0d 21 f4 3d 9b 21 10 be 49 3e 23 be 19 01 7a be
       0.119203664 -0.1407532 -0.15941729 -0.24414481
000180 bf 61 85 bc 01 68 f4 bb 39 0f 5a 3d 52 ee 49 3d
       -0.01628196 -0.0074586873 0.053237174 0.049299546
000190 e7 cd 4b 3e b0 66 48 3d 67 29 bc bd e0 1c a3 3d
       0.19902764 0.048926055 -0.09187584 0.07964492
0001a0 a7 de b0 bd d2 f1 09 be 22 af 37 3d 9d e1 24 3e
       -0.086362176 -0.13471153 0.044844754 0.1610169
0001b0 57 93 67 be 53 d5 e5 bd 7f f7 9a be 4d f2 3d be
       -0.226148 -0.11222329 -0.3026695 -0.18549462
0001c0 81 93 68 3d b1 ca ab bd 1b fe 84 be e0 8e e5 bc
       0.056781296 -0.0838827 -0.25975117 -0.02802223
0001d0 51 08 b7 be 5e 5d 9f 3d bc f1 86 bd fc 87 1c 3e
       -0.35748532 0.0778148 -0.06589076 0.15286249
0001e0 5c b3 80 bc ec 67 3f be 47 6f bd 3b 53 53 8b 3c
       -0.015710525 -0.18691987 0.0057810876 0.017007506
0001f0 75 cb 45 3d 15 40 d0 3d e4 66 72 3e 11 3d 06 be
       0.048289735 0.10168473 0.23672062 -0.13109232

fc3.weight f4 [4, 128]
000000 33 67 bd 3c 4a 02 4e be da 0a 3f be 0f b8 18 3c
       0.023120498 -0.2011806 -0.18656483 0.009321227
000010 d2 38 52 be fb 59 a4 bd 8d 44 2b bf 34 11 5f 3e
       -0.20529488 -0.08024975 -0.66901475 0.21783906
000020 ac c7 83 be 29 57 66 3d 11 7c ba bd ca d6 99 bd
       -0.25738275 0.056235466 -0.09105695 -0.07511671
000030 ef bc c2 be cd 7e b8 bd 1d 81 b2 be 3e 8f 24 3e
       -0.3803477 -0.0900856 -0.3486413 0.16070268
000040 6c e8 7b bd a1 ff f5 3e 46 03 44 3e da cd 45 3d
       -0.06150095 0.48046592 0.19141874 0.04829202
000050 d9 2b 07 bf 86 20 b5 3e cf 83 ef 3c f3 ec 81 be
       -0.5280128 0.35376376 0.029237656 -0.2537609
000060 df 91 66 3d b5 7c 8e 3d a6 00 a9 3e 89 20 1d be
       0.056291457 0.0695738 0.33008307 -0.15344442
000070 91 af c5 3d 50 d4 52 bd d8 1b 8b be 52 b8 8b 3c
       0.09652627 -0.05147201 -0.2716968 0.017055664
000080 c6 32 c1 bd 35 58 9e 3d bc 08 c7 3e 20 ec d2 3e
       -0.094335124 0.07731668 0.3887385 0.41195774
000090 2d ff b1 3e 52 23 43 bb 66 2a 83 3e 7b 52 8f 3c
       0.34764996 -0.0029775691 0.25618285 0.017495384
0000a0 d1 c3 a9 3e a5 2b dd be 11 76 65 be b6 da 8b 3e
       0.3315721 -0.4319736 -0.2240832 0.273153
0000b0 59 87 56 3d ad ac 96 3e 6c 86 35 be 62 57 51 3f
       0.05237517 0.29428616 -0.17727059 0.8177396
0000c0 da 19 4f 3c a2 cd df 3c 57 96 0e 3e 13 1d c1 3d
       0.012640441 0.027319733 0.13924538 0.094293736
0000d0 dd a8 f2 bd 85 bb 27 3d b8 a3 e4 3b 96 3d f2 bd
       -0.11848614 0.040950317 0.0069775246 -0.11828153
0000e0 8f ec f8 3d 9d a5 11 3e 23 c5 da 3d 70 5e dc bd
       0.12154495 0.14223333 0.10682132 -0.107602
0000f0 66 4f 26 bd bf 56 03 bf 2b 04 79 3e 1e 40 aa 3d
       -0.040603064 -0.5130424 0.24317996 0.08313011
000100 21 70 a9 bd 0e 30 72 be af 32 e5 3d 22 1f b9 bd
       -0.0827334 -0.23651144 0.11191308 -0.09039141
000110 f1 c5 f6 bd 60 56 8d be 91 c3 88 be f1 2b ae 3e
       -0.12049473 -0.2760496 -0.26711705 0.340179
000120 7b 4e 70 bd 93 2f 62 bd d0 57 ab 3e d6 24 a8 be
       -0.058668595 -0.05522115 0.33465433 -0.32840604
000130 cd 62 b9 3e a9 e2 1f be c0 6f fd bc b0 94 21 be
       0.36208192 -0.15613808 -0.030937076 -0.15779376
000140 94 b8 d9 bd a1 01 14 3f 4c 3f 06 be 74 42 f4 bd
       -0.106309086 0.57814986 -0.13110083 -0.119267374
000150 ec 3b 33 3e 12 f4 9d be a2 73 84 3e ba 06 34 3d
       0.17503327 -0.30850273 0.2586947 0.043951727
000160 58 0b 08 bf c5 ff fd 3d ec 53 cb bd c9 e7 04 3f
       -0.5314231 0.124023 -0.09928116 0.51916176
000170 54 af 21 3f 12 99 e3 bd a0 bb 9c bd 86 3e fd bd
       0.63158154 -0.1111318 -0.07652974 -0.12365441
000180 17 ef 08 3b cc 79 82 be 37 f3 ef 3e fe 9f 86 3e
       0.0020894462 -0.2548355 0.46865246 0.2629394
000190 dd 7a 3c be a9 b6 84 bd 00 4d fc bc eb e3 c0 bd
       -0.18406244 -0.06480152 -0.030798435 -0.09418472
0001a0 fa 89 c9 3d 4b 50 ff bd d4 1d 5c be 88 8a ef be
       0.0984077 -0.124664865 -0.21495754 -0.46785378
0001b0 34 9f 1b 3d 74 b6 36 3d 2c a1 2d 3f e5 69 82 3f
       0.037993625 0.044607595 0.67824054 1.0188566
0001c0 da 5a 36 be db fb ae be f9 a6 07 bf 85 95 05 be
       -0.17808095 -0.34176525 -0.52989155 -0.13045318
0001d0 0c f2 e1 be 29 1f 4c 3c 46 87 b7 3e d7 7d 0b be
       -0.4412998 0.012458601 0.35845393 -0.13622223
0001e0 9f c8 85 bd 05 3c 1a 3f 73 5c 3e 3f 19 65 47 3c
       -0.06532406 0.6024783 0.74359816 0.0121701
0001f0 3e 35 28 3f fe bd a8 bd da d1 a0 bd eb 13 11 3e
       0.6570624 -0.08239363 -0.07852526 0.14167754
000200 34 c5 af 3e 97 c6 86 3e 37 79 ea 3e 6c 45 db 3d
       0.34330142 0.26323387 0.45795605 0.107066005
000210 d8 89 9c bd da c6 1b 3f 1a 92 9e 3e ab 6c 47 bc
       -0.07643479 0.608503 0.30970842 -0.012171905
000220 3e 32 14 3e 30 b2 04 be 5b 78 af 3c fe e4 96 be
       0.14472291 -0.12958598 0.021419695 -0.29471582
000230 ff ae c7 3d 2f 8b fb 3e 59 48 f2 bc 05 70 34 be
       0.09750175 0.49129626 -0.029575514 -0.17620857
000240 11 59 98 bd 15 b8 d5 be a8 82 d5 bd f6 33 f3 3d
       -0.07438863 -0.41742006 -0.10425311 0.11875145
000250 ba 5e 66 3d 3b 37 0a 3e 2a 1b 13 be 52 db df bd
       0.056242682 0.13497631 -0.14365831 -0.10930504
000260 28 f4 62 3e 72 a6 af 3e 6d b2 e6 bd 36 4e be be
       0.2216345 0.34306675 -0.11264501 -0.37169045
000270 ac 4b 14 3e 43 27 ac bd 22 a4 3a 3c ae 25 fb bd
       0.14481992 -0.08405926 0.011391671 -0.12263046
000280 72 7b 0b 3e 8c d3 b3 3d d9 90 8c bd 7f 8e 5d be
       0.1362131 0.08780584 -0.06863565 -0.21636389
000290 22 2a 3e bf 6c 45 c9 be 44 7a ff 3d fa a9 98 be
       -0.7428304 -0.39310777 0.12474492 -0.29817182
0002a0 be 88 f2 3d e0 e1 5b 3e 24 88 23 3e 54 68 4c 3e
       0.11842488 0.21472883 0.15969902 0.19961673
0002b0 b2 64 6a 3d cf 13 e1 3e 32 40 52 be 64 6f 01 3e
       0.057224937 0.43960425 -0.20532301 0.12640148
0002c0 8e 6f 99 3e ed 7f 81 be 2e 8e 6e be 70 b3 a0 be
       0.29967922 -0.25292912 -0.23296425 -0.313869
0002d0 d6 85 bb 3e 0e b3 04 bd f1 f7 17 be 33 46 8e 3e
       0.36625546 -0.032397322 -0.14840676 0.27787933
0002e0 78 68 47 3e 3f 45 89 3d 40 d3 1f 3e b5 b6 17 3f
       0.19473445 0.06702661 0.15607929 0.59263164
0002f0 f6 15 07 bf 50 9c 7f be c4 48 e0 3d f6 94 6c 3e
       -0.52767885 -0.24961972 0.10951379 0.23103699
000300 8e dd 64 be e0 7b 87 be 30 58 70 3e 6f ab b4 3e
       -0.22350141 -0.26461697 0.23471141 0.35287043
000310 6f 87 8b be 5c 52 a7 be 09 1a 89 3e 8c 28 19 3d
       -0.27251765 -0.32680023 0.26777676 0.037392184
000320 1c bf 9c bd f0 33 88 be 29 27 b3 3e 3c 8f 71 3e
       -0.07653639 -0.26602125 0.34990814 0.23589796
000330 7e c9 a8 bd 90 e0 4c bd 11 9d 0a 3d cf 88 e1 be
       -0.082415566 -0.050018847 0.033841196 -0.4404969
000340 8b 8f 97 3d e9 82 9f bd 54 ca c1 bd 95 91 bd bd
       0.074004255 -0.07788641 -0.09462419 -0.09256283
000350 d7 31 ea 3d e9 fd d4 be 40 46 04 3f 8f b0 3b 3e
       0.114352874 -0.41599968 0.51669693 0.1832907
000360 bb 7d 2a be 50 30 23 3e 74 e6 b7 bd 31 82 11 bd
       -0.16649525 0.15936399 -0.08979502 -0.03552455
000370 03 b6 d0 be de a7 93 3e 77 44 ea bd 93 de dc 3e
       -0.40763864 0.2883901 -0.1143884 0.4313856
000380 81 02 ad 3e 8c 31 de be 6d 98 22 3e f6 44 c5 be
       0.33790973 -0.43397176 0.15878458 -0.38529176
000390 00 30 9f bb a1 93 ff bc 31 f2 03 be 4c ec 92 be
       -0.004858017 -0.031198325 -0.12885357 -0.28695905
0003a0 ec 3c c6 3e 9d fd 8b 3d c5 3a fc bc a9 40 41 bf
       0.38718355 0.06835482 -0.030789742 -0.7548929
0003b0 7b 4a 23 bd 1a 71 55 be 2a 1c 07 bf 36 ee 8f be
       -0.039865952 -0.20843926 -0.5277735 -0.28111428
0003c0 66 49 34 be a3 04 11 3e d0 b9 33 3f f8 c7 51 bd
       -0.17606124 0.14161925 0.702054 -0.051216096
0003d0 ea 86 48 be fe 02 9f 3e d7 9c da 3d cd 81 12 bd
       -0.19582716 0.3105697 0.10674446 -0.03576832
0003e0 1f 51 00 bd 24 d0 d6 be c9 b9 ff be f4 ab 85 3e
       -0.031327363 -0.41955674 -0.4994643 0.26107752
0003f0 6f 00 d2 be b7 93 d1 3e a1 6e ef bd ce 4d 16 3f
       -0.41015956 0.4093301 -0.11691023 0.5871247

fc3.bias f4 [4]
000000 a2 8c 4c be 8a e0 1f 3c a2 13 20 39 a9 a1 11 bd
       -0.19975522 0.009758124 0.00015266103 -0.03555456

bn.weight f4 [128]
000000 c4 c8 ed 3e 1f 9a 39 3f aa b5 0b 3f e2 52 15 3f
       0.46442235 0.72500795 0.5457407 0.58329594
000010 55 6e 85 3f 5f 63 91 3f 9a 12 6b 3f 51 01 42 3f
       1.0424296 1.1358451 0.9182526 0.7578326
000020 d5 0e 44 3f ac c6 67 3f 9c 89 15 3f ff 1a 26 3f
       0.7658513 0.90537524 0.584131 0.6488494
000030 28 7c 8a 3f ba 4d 63 3f 6d cf 10 3f 27 73 21 3f
       1.081914 0.88790476 0.56566507 0.63066334
000040 b1 c7 34 3f 64 77 87 3f ab 1c 5d 3f e3 d3 95 3f
       0.70617205 1.058331 0.8637187 1.1705288
000050 70 fd 8a 3f cf 30 36 3f f3 5d 11 3f 68 e1 0a 3f
       1.0858593 0.71168226 0.5678398 0.5425019
000060 96 3e 14 3f d4 8a fc 3e ed 6f 67 3f b3 ac 01 3f
       0.57908 0.49324667 0.9040516 0.50654143
000070 23 4a 61 3f fe c0 52 3f 41 0f a2 3f 22 ab ee 3e
       0.8800375 0.8232573 1.2660905 0.4661494
000080 8f e1 67 3f a2 97 81 3f e9 d3 10 3f 49 91 5b 3f
       0.9057855 1.01244 0.5657335 0.8576856
000090 9f 98 07 3f 8e 29 49 3f 96 99 67 3f 40 71 27 3f
       0.52967256 0.7857903 0.9046873 0.6540718
0000a0 16 29 bc 3f 58 1f 59 3f 47 eb 18 3f 94 66 48 3f
       1.4700038 0.8481345 0.59734005 0.7828152
0000b0 e6 e9 91 3f 8b 65 88 3f e8 1e ea 3e a1 5f 31 3f
       1.1399505 1.0655988 0.45726705 0.69286543
0000c0 b9 12 f7 3e 1a 63 88 3f 2d d3 63 3f 9d 69 1b 3f
       0.48256472 1.0655243 0.88994104 0.6070803
0000d0 32 ff 7b 3f 97 32 7f 3f d9 b9 2f 3f e7 49 23 3f
       0.9843627 0.9968657 0.68642956 0.6378464
0000e0 5b ec da 3e 33 93 60 3f 24 62 22 3f 95 67 14 3f
       0.4275845 0.8772461 0.63431 0.57970554
0000f0 6d ee 50 3f ab 7d fe 3e 3e 42 30 3f bc cf 10 3f
       0.8161381 0.49705252 0.6885108 0.5656698
000100 29 c0 86 3f 21 7f 18 3f b1 f5 80 3f 3f a6 19 3f
       1.0527393 0.59568983 1.0074979 0.60019296
000110 f6 24 49 3f f2 75 20 3f 1e 4f 65 3f 5f 0d 5b 3f
       0.7857202 0.6267997 0.8957385 0.8556728
000120 e3 5b 77 3f 1e 55 53 3f be e7 8f 3f e3 a8 1d 3f
       0.96624583 0.82551754 1.1242597 0.61585826
000130 13 6a a4 3f bc e3 8b 3f f5 ae 92 3f 19 62 54 3f
       1.2844871 1.0928874 1.1459643 0.82962185
000140 60 d7 23 3f 3e 7b 5b 3f 66 a7 5a 3f ea 0a 45 3f
       0.6400051 0.8573493 0.8541168 0.7696978
000150 5d dc 82 3f b3 94 8e 3f 53 e0 82 3f f9 ea 41 3f
       1.02235 1.1139129 1.0224708 0.75749165
000160 db 33 8d 3f a2 98 5b 3f c9 27 57 3f 32 9c ae 3f
       1.103145 0.85779774 0.8404508 1.3641417
000170 24 6a 91 3f 57 36 85 3f 7b 45 96 3f 15 76 11 3f
       1.1360517 1.0407208 1.1739954 0.56820804
000180 3c f5 60 3f 8f 71 f5 3e 81 e1 16 3f 96 c9 3a 3f
       0.878742 0.479382 0.5893784 0.72963846
000190 01 4b 80 3f e4 22 42 3f fe 26 53 3f ee 95 64 3f
       1.0022889 0.7583449 0.8248137 0.89291275
0001a0 14 c9 89 3f a1 7d 99 3f 48 06 4d 3f 1c 51 83 3f
       1.0764489 1.1991464 0.8008771 1.0259128
0001b0 40 b1 4b 3f 34 c1 2c 3f 51 8f 1f 3f b2 df 04 3f
       0.7956734 0.67482305 0.6232806 0.5190383
0001c0 8e 81 6a 3f b5 a6 14 3f 31 5a 74 3f 4a b8 ff 3e
       0.91603935 0.58066875 0.9545012 0.4994529
0001d0 2b da 7a 3f 0c ff 14 3f 7c 76 67 3f 19 70 88 3f
       0.9798915 0.5820167 0.9041517 1.065921
0001e0 da d0 07 3f 27 17 07 3f 6f 92 85 3f 3b 85 78 3f
       0.5305306 0.527697 1.0435313 0.97078294
0001f0 2f 36 83 3f b7 72 6b 3f 3a 00 46 3f 33 cf 83 3f
       1.025091 0.91971916 0.77344096 1.0297607

bn.bias f4 [128]
000000 40 67 54 be 3d a2 8c bd 3a fc 33 3e 02 e1 03 be
       -0.20742512 -0.06866882 0.17576686 -0.12878802
000010 25 5a 1f bb 5e 2d 58 be bf cc 16 be 81 77 1e 3e
       -0.0024315205 -0.21111056 -0.14726542 0.15475275
000020 f3 e0 b8 bd 0a bc 3d bd 4b e3 2b 3e 92 d5 26 3e
       -0.09027281 -0.046321906 0.16785924 0.16292408
000030 93 49 8e be 89 fa 4c bd 1e 9a 04 be 67 67 a1 3d
       -0.27790508 -0.050043616 -0.12949416 0.078810506
000040 c8 98 c5 3d 71 46 88 be 88 3d d5 bd 00 bf cc 3d
       0.09648281 -0.26616243 -0.10412127 0.09997368
000050 1f 3d 86 bd 79 51 af bd e6 64 07 3e 7b 44 b4 bd
       -0.06554627 -0.085604616 0.13222083 -0.08802124
000060 bf 27 84 bd be f5 c5 be 76 c0 e4 3d 1d 0f f4 3b
       -0.064528935 -0.3866405 0.111695215 0.0074480907
000070 84 38 e2 3d 81 fb 65 3e 50 f8 8d be 33 09 b1 bc
       0.11045936 0.22459222 -0.2772851 -0.021610832
000080 88 05 65 3e 98 c0 54 be 6e a8 3b be fd 55 27 be
       0.22365391 -0.20776594 -0.1832597 -0.16341396
000090 5d d5 8c bd ba 87 7f be 20 1f 2c 3a 2a 8f 2c be
       -0.06876633 -0.2495412 0.0006565917 -0.16851488
0000a0 69 da 80 3d bf bd 24 be f7 e0 18 be 76 33 24 3e
       0.062916584 -0.16088007 -0.14929567 0.16035256
0000b0 ba 13 8d 3e 33 28 28 3e 13 6e a5 bd 22 b9 37 be
       0.27554113 0.16421585 -0.080776356 -0.17941716
0000c0 e8 9c c6 bc 34 7f 3e be 68 0a b1 3d 76 08 a2 bc
       -0.02424474 -0.18603212 0.08644563 -0.019779425
0000d0 62 94 b2 3d c7 ed 8c be 46 f8 86 3d 16 4f 68 be
       0.08719708 -0.2752516 0.06590323 -0.22686419
0000e0 c3 5b 1e 3c a0 04 d5 bd 2b 04 6e 3e c4 b7 1d bd
       0.009665432 -0.10401273 0.23243777 -0.03850533
0000f0 35 5f 77 3d 5d 4c 68 3e cf f2 8d bd 69 e1 23 bd
       0.06039353 0.2268538 -0.06931078 -0.04000989
000100 3c 53 a4 3d 3e 10 a3 be 5a c1 41 3d 3c 51 a7 3d
       0.08023688 -0.3184833 0.047303535 0.08169791
000110 fe 91 18 3e 21 aa ec 3c ea 5d 58 be 1e 6b 80 3d
       0.14899442 0.028889718 -0.21129575 0.06270431
000120 97 1b 4c 3e cd b4 0e bd e2 31 47 be 08 d8 a9 3e
       0.199324 -0.034840394 -0.19452623 0.3317263
000130 c7 00 1c be bb ff 5e bd 71 a5 71 bd ad 49 eb bd
       -0.15234672 -0.054443102 -0.058995668 -0.11488662
000140 42 ab ef bd 14 e3 23 be 0c a4 b6 3d 3a 3d 6e be
       -0.11702587 -0.16004592 0.08918008 -0.23265544
000150 08 69 71 be db e5 30 3d a1 3e 79 be 7f 40 ee bc
       -0.23575222 0.043187957 -0.24340297 -0.029083489
000160 b6 00 4a 3d 25 8d 54 be d4 69 50 be 58 83 a3 bd
       0.049317084 -0.20756967 -0.2035287 -0.07984036
000170 84 b8 0b 3e 25 82 95 3d 6c 4f 24 bd 6e 63 25 3d
       0.13644606 0.07300214 -0.040114805 0.040378027
000180 aa 51 fd 3d 4f 8f 92 3d 4e 5e 94 3d 9e 63 a5 3c
       0.12369092 0.0715624 0.0724455 0.020189103
000190 34 1a 19 3e e2 02 78 3d 54 66 5c 3e 0b 19 c5 bd
       0.14951402 0.060549624 0.2152341 -0.09623917
0001a0 9d 16 67 be a2 f9 a3 be 2a dd df bc 5b 71 07 3e
       -0.2256722 -0.32026392 -0.027327139 0.13226835
0001b0 96 7c 2f bd 6b b3 e7 bc 63 39 51 3d 82 4a 02 be
       -0.042843424 -0.028283795 0.05108012 -0.12723735
0001c0 c9 f6 41 3d ed 00 a4 3c 95 29 4c be b7 e6 da bc
       0.047354493 0.020019973 -0.19937737 -0.026721342
0001d0 7c d8 38 3e bc ce 1c 3e ef 32 e8 bb a2 77 3e bc
       0.18051332 0.15313238 -0.00708615 -0.011625202
0001e0 b9 f2 6b bd 92 1a 33 be e1 06 50 3e b0 57 bf bb
       -0.057604525 -0.17490605 0.20315124 -0.0058393106
0001f0 80 6f 9b bc e9 59 02 be b0 46 96 bc 02 88 94 bd
       -0.018974066 -0.1272961 -0.018344253 -0.07252504

bn.running_mean f4 [128]
000000 d2 be 85 3e 97 ed 5d 3f c7 a8 4f 3e 9b 5e e7 3d
       0.26122147 0.8669066 0.20279227 0.112973414
000010 21 42 c4 3e 5f 12 af 3d c9 93 a8 3e 35 a4 d4 3d
       0.38331702 0.08548426 0.3292525 0.103828825
000020 ce b2 29 3f 54 1a 90 3e 34 ab 02 3f aa cf 8a 3e
       0.6628846 0.28145087 0.51042485 0.2711156
000030 b8 0e b3 3d b6 02 8f 3f 96 45 8f 3e b0 32 71 3e
       0.08743042 1.1172702 0.27982777 0.23554492
000040 75 c6 61 3c db 95 8b 3d be cf b1 3d 0c 6d 86 3e
       0.013780226 0.06815692 0.08682202 0.2625507
000050 ba 29 9e 3e 37 f2 f8 3d cc 29 c8 3e cd 7d 1d 3e
       0.3089121 0.12155574 0.39094388 0.1538002
000060 ed 69 bf 3e bd de 29 3d be ce 87 3d 0e a8 42 3d
       0.37385502 0.041472185 0.0663123 0.04752355
000070 16 7d 43 3e 80 a3 6c 3e af 10 f0 3f 31 3a 78 3e
       0.19090685 0.23109245 1.8755091 0.24240948
000080 60 02 99 3e 97 fc 32 3e 40 18 ad 3e 96 99 12 3f
       0.29884624 0.17479168 0.33807564 0.57265604
000090 26 84 9a 3e 07 43 3b 3e 73 6b 9d 3e 8d 09 10 3e
       0.30178946 0.18287288 0.3074604 0.14066143
0000a0 88 4c 6c 3e 19 16 99 3f c7 6e c9 3d 9a 8f 15 3f
       0.2307607 1.1959869 0.09835582 0.58422244
0000b0 df 4a 09 3f aa 10 01 3e b2 0b a7 3e ed 7e e0 3d
       0.5362987 0.12604013 0.3262611 0.10961709
0000c0 0d f3 d1 3e 91 d3 d6 3e 18 7c 97 3d 7b 7f cb 3d
       0.41005746 0.41958287 0.07396716 0.09936424
0000d0 01 c6 d5 3d 20 2a 23 3e 97 d5 9b 3d 86 e6 1e 3e
       0.10438157 0.15934038 0.076090984 0.15517625
0000e0 48 48 ee 3e 33 11 32 3e b3 15 7e 3e e6 a8 1d 3e
       0.4653952 0.17389373 0.24812965 0.15396461
0000f0 ea 9f 4d 3e c4 65 38 3e 36 08 b9 3e 0b 4c 2d 3e
       0.20080534 0.1800757 0.36139077 0.1692354
000100 0a 87 ba 3f 6b d2 ae 3e 33 c5 42 3e 8c 84 9e 3e
       1.4572461 0.3414491 0.19020538 0.309605
000110 82 ac 84 3e 0e d8 a8 3d 2a e2 85 3e f4 91 06 3f
       0.25912863 0.08244334 0.26149112 0.52566457
000120 c8 26 00 3f f1 68 d9 3e 1d c9 05 3e eb 24 34 3e
       0.50059175 0.42462876 0.13065 0.17592208
000130 7f 49 08 3e 4e 4f 00 3e 29 32 2a 3e 6c f8 f0 3d
       0.13309287 0.12530252 0.16620697 0.11766133
000140 0c c7 1d 3f 84 1d 44 3e 52 9e 7d 3e 20 a2 6f 3e
       0.61631846 0.19151884 0.24767426 0.2340169
000150 03 22 ab 3e 16 52 d7 3e 35 9d 9c 3e 1b e8 8b 3e
       0.33424386 0.42054814 0.3058869 0.2732552
000160 ca 73 0a 3f df f8 99 3d 07 af 03 3e 55 4c aa 3e
       0.5408293 0.075181715 0.12859736 0.33261362
000170 f5 55 f9 3d d6 a7 d0 3f d6 b9 88 3e 4d 42 89 3e
       0.12174598 1.630122 0.26704282 0.26808396
000180 3c 1c bf 3e e5 27 21 3c f3 8d 50 3e e3 c0 b3 3f
       0.3732623 0.009836172 0.2036665 1.4043239
000190 69 12 ad 3c a4 56 dc 3e 9c 38 57 3e cf 5d e3 3e
       0.021126943 0.43034852 0.21017689 0.44407508
0001a0 37 ec 53 3f d2 cc 24 3e ac 87 2b 3f cd 3d 13 3e
       0.8278231 0.16093758 0.67003894 0.14379044
0001b0 25 65 4d 3e 2d fc 29 3e 65 ff 92 3e 58 6c 93 3f
       0.20058115 0.16600104 0.28710476 1.1517439
0001c0 66 19 a4 3e 6b 10 0a 3f e7 bb c8 3d cb cd be 3e
       0.32050627 0.539313 0.098014645 0.37266383
0001d0 c1 89 34 3e 95 b1 4f 3d 4f fa 42 3f 9c a9 1f 3e
       0.17630674 0.050706465 0.7616319 0.15592045
0001e0 ca ad 9e 3e f7 56 8b 3d d3 50 90 3e c5 66 5f 3f
       0.30991966 0.068036966 0.28186664 0.8726619
0001f0 22 99 97 3e 1a ae c7 3d ac d3 9c 3e ea 51 d7 3e
       0.2960902 0.09750004 0.30630243 0.42054683

bn.running_var f4 [128]
000000 87 8d 8b 3e 3c 58 b6 3e 3e 19 ce 3d 84 54 6b 3d
       0.27256414 0.35614192 0.10063408 0.057453647
000010 25 2e b5 3e 00 84 59 3d 04 eb 7d 3e ba 1d af 3d
       0.35386768 0.0531044 0.24796683 0.08550592
000020 a0 df 85 3e 10 65 53 3e 2b 73 3e 3e da d7 33 3e
       0.26147175 0.20644021 0.1859862 0.1756281
000030 13 93 83 3d 80 c4 c2 3e b1 f3 52 3e 2a 4b 17 3e
       0.064245366 0.38040543 0.20600773 0.14774767
000040 68 78 c3 3b f6 31 46 3d 8e bb 61 3d f7 c0 42 3e
       0.0059652813 0.04838749 0.055110507 0.19018923
000050 02 ef 4c 3e 81 63 b3 3d 82 42 5e 3e f2 88 df 3d
       0.20013049 0.08759213 0.21705058 0.10914792
000060 77 2c 70 3e 71 0b b2 3c c2 a2 16 3d e6 c8 d6 3c
       0.23454462 0.021733971 0.03677631 0.026218843
000070 72 4b b5 3d e1 67 ea 3d c8 5a 61 3f 35 84 34 3e
       0.08852281 0.114455946 0.88029146 0.17628558
000080 6d f6 25 3e f7 dd c8 3d d3 6c a7 3e f6 23 ed 3e
       0.16207285 0.098079614 0.32700214 0.463165
000090 d8 61 60 3e db 19 ef 3d c4 53 44 3e 95 29 94 3d
       0.21912324 0.116748534 0.19172579 0.07234494
0000a0 24 d2 09 3e 3d 2a 9b 3f 8b ab 4a 3d a8 54 d5 3e
       0.13459069 1.2122265 0.049480002 0.4166615
0000b0 3a 76 35 3e 0e 8a 99 3d a9 e3 8e 3e 16 bc 4f 3d
       0.17720881 0.07497035 0.27908066 0.050716482
0000c0 8a 7f 68 3e 9a ac 56 3e 55 49 31 3d 57 81 79 3d
       0.22704902 0.2096428 0.043282825 0.060914364
0000d0 f6 32 27 3d 04 ea bd 3d 6d d3 76 3d d4 1e cd 3d
       0.040820085 0.092731506 0.060260225 0.100156456
0000e0 c7 71 e2 3e 41 4b 2d 3e b0 af 3f 3e 3e 1a fd 3d
       0.4422743 0.16923238 0.18719363 0.12358521
0000f0 b0 6e 2d 3e f9 53 37 3e c7 40 ee 3e 09 c9 38 3e
       0.16936755 0.17903127 0.46533796 0.18045439
000100 07 41 93 3e a7 d9 29 3e 84 60 fe 3d 0a af 38 3e
       0.2876055 0.16586934 0.12420753 0.18035522
000110 9e 34 10 3e 99 39 0f 3d e4 93 a2 3e 24 fc b6 3e
       0.14082572 0.03496704 0.31753457 0.35739243
000120 3e 16 b9 3e 62 f0 39 3e 35 da a8 3d 3c 03 b1 3d
       0.36149782 0.18158105 0.08244745 0.08643195
000130 10 d2 c3 3d 30 3a a5 3d 3c c9 e5 3d a8 a6 64 3d
       0.095615506 0.08067739 0.11220023 0.055823
000140 25 ee 2a 3f 87 72 27 3e bf 31 35 3e 8d 84 57 3e
       0.6676963 0.16352282 0.17694758 0.21046658
000150 66 4d 6c 3e 54 e7 82 3e 4f 59 7d 3e 6c 42 26 3e
       0.230764 0.25567114 0.247411 0.16236275
000160 3f 64 02 3f 92 4d 47 3d af 15 6f 3d 0c b4 4d 3e
       0.50934213 0.04865796 0.05837029 0.20088214
000170 f2 fa 85 3d 1d 5f e6 3e 1c 57 1c 3e 5d 2f f8 3d
       0.06542005 0.4499444 0.15267605 0.12118409
000180 32 75 72 3e b3 52 86 3b 11 a7 15 3e aa 05 e8 3e
       0.23677519 0.004099214 0.14614512 0.4531682
000190 2d 40 35 3c 75 03 30 3e eb c2 d3 3d 38 a3 47 3e
       0.011062664 0.17188819 0.10339912 0.19495857
0001a0 3c 61 3a 3f dc 57 18 3e 64 1b 00 3f 94 4f d1 3d
       0.7280462 0.14877266 0.50041795 0.102202564
0001b0 91 1a 9e 3d 39 48 b8 3d df 20 e5 3d f3 8a 7c 3f
       0.07719911 0.089981504 0.1118791 0.9864952
0001c0 c9 74 99 3e 10 ba 92 3e 73 6c 69 3d ec 93 95 3e
       0.29971913 0.2865758 0.05698819 0.29214418
0001d0 5e 97 da 3d 7c 95 c5 3c fb 72 1d 3f a1 2c a7 3d
       0.10673402 0.024119131 0.6150357 0.08162809
0001e0 d7 2c 74 3e 06 ff 23 3d c8 79 39 3e 9a fa 90 3e
       0.2384523 0.04003813 0.18112862 0.28316194
0001f0 b5 5b 59 3e dd 0a 88 3d 77 40 71 3e 2e c2 71 3e
       0.2122639 0.06642697 0.23559748 0.2360923
